node {
  name: "global_step/Initializer/zeros"
  op: "Const"
  attr {
    key: "_class"
    value {
      list {
        s: "loc:@global_step"
      }
    }
  }
  attr {
    key: "_output_shapes"
    value {
      list {
        shape {
        }
      }
    }
  }
  attr {
    key: "dtype"
    value {
      type: DT_INT64
    }
  }
  attr {
    key: "value"
    value {
      tensor {
        dtype: DT_INT64
        tensor_shape {
        }
        int64_val: 0
      }
    }
  }
}
node {
  name: "global_step"
  op: "VariableV2"
  attr {
    key: "_class"
    value {
      list {
        s: "loc:@global_step"
      }
    }
  }
  attr {
    key: "_output_shapes"
    value {
      list {
        shape {
        }
      }
    }
  }
  attr {
    key: "container"
    value {
      s: ""
    }
  }
  attr {
    key: "dtype"
    value {
      type: DT_INT64
    }
  }
  attr {
    key: "shape"
    value {
      shape {
      }
    }
  }
  attr {
    key: "shared_name"
    value {
      s: ""
    }
  }
}
node {
  name: "global_step/Assign"
  op: "Assign"
  input: "global_step"
  input: "global_step/Initializer/zeros"
  attr {
    key: "T"
    value {
      type: DT_INT64
    }
  }
  attr {
    key: "_class"
    value {
      list {
        s: "loc:@global_step"
      }
    }
  }
  attr {
    key: "_output_shapes"
    value {
      list {
        shape {
        }
      }
    }
  }
  attr {
    key: "use_locking"
    value {
      b: true
    }
  }
  attr {
    key: "validate_shape"
    value {
      b: true
    }
  }
}
node {
  name: "global_step/read"
  op: "Identity"
  input: "global_step"
  attr {
    key: "T"
    value {
      type: DT_INT64
    }
  }
  attr {
    key: "_class"
    value {
      list {
        s: "loc:@global_step"
      }
    }
  }
  attr {
    key: "_output_shapes"
    value {
      list {
        shape {
        }
      }
    }
  }
}
node {
  name: "global_step/IsVariableInitialized"
  op: "IsVariableInitialized"
  input: "global_step"
  attr {
    key: "_class"
    value {
      list {
        s: "loc:@global_step"
      }
    }
  }
  attr {
    key: "_output_shapes"
    value {
      list {
        shape {
        }
      }
    }
  }
  attr {
    key: "dtype"
    value {
      type: DT_INT64
    }
  }
}
node {
  name: "global_step/cond/Switch"
  op: "Switch"
  input: "global_step/IsVariableInitialized"
  input: "global_step/IsVariableInitialized"
  attr {
    key: "T"
    value {
      type: DT_BOOL
    }
  }
  attr {
    key: "_output_shapes"
    value {
      list {
        shape {
        }
        shape {
        }
      }
    }
  }
}
node {
  name: "global_step/cond/switch_t"
  op: "Identity"
  input: "global_step/cond/Switch:1"
  attr {
    key: "T"
    value {
      type: DT_BOOL
    }
  }
  attr {
    key: "_output_shapes"
    value {
      list {
        shape {
        }
      }
    }
  }
}
node {
  name: "global_step/cond/switch_f"
  op: "Identity"
  input: "global_step/cond/Switch"
  attr {
    key: "T"
    value {
      type: DT_BOOL
    }
  }
  attr {
    key: "_output_shapes"
    value {
      list {
        shape {
        }
      }
    }
  }
}
node {
  name: "global_step/cond/pred_id"
  op: "Identity"
  input: "global_step/IsVariableInitialized"
  attr {
    key: "T"
    value {
      type: DT_BOOL
    }
  }
  attr {
    key: "_output_shapes"
    value {
      list {
        shape {
        }
      }
    }
  }
}
node {
  name: "global_step/cond/read"
  op: "Identity"
  input: "global_step/cond/read/Switch:1"
  attr {
    key: "T"
    value {
      type: DT_INT64
    }
  }
  attr {
    key: "_output_shapes"
    value {
      list {
        shape {
        }
      }
    }
  }
}
node {
  name: "global_step/cond/read/Switch"
  op: "RefSwitch"
  input: "global_step"
  input: "global_step/cond/pred_id"
  attr {
    key: "T"
    value {
      type: DT_INT64
    }
  }
  attr {
    key: "_class"
    value {
      list {
        s: "loc:@global_step"
      }
    }
  }
  attr {
    key: "_output_shapes"
    value {
      list {
        shape {
        }
        shape {
        }
      }
    }
  }
}
node {
  name: "global_step/cond/Switch_1"
  op: "Switch"
  input: "global_step/Initializer/zeros"
  input: "global_step/cond/pred_id"
  attr {
    key: "T"
    value {
      type: DT_INT64
    }
  }
  attr {
    key: "_class"
    value {
      list {
        s: "loc:@global_step"
      }
    }
  }
  attr {
    key: "_output_shapes"
    value {
      list {
        shape {
        }
        shape {
        }
      }
    }
  }
}
node {
  name: "global_step/cond/Merge"
  op: "Merge"
  input: "global_step/cond/Switch_1"
  input: "global_step/cond/read"
  attr {
    key: "N"
    value {
      i: 2
    }
  }
  attr {
    key: "T"
    value {
      type: DT_INT64
    }
  }
  attr {
    key: "_output_shapes"
    value {
      list {
        shape {
        }
        shape {
        }
      }
    }
  }
}
node {
  name: "global_step/add/y"
  op: "Const"
  attr {
    key: "_output_shapes"
    value {
      list {
        shape {
        }
      }
    }
  }
  attr {
    key: "dtype"
    value {
      type: DT_INT64
    }
  }
  attr {
    key: "value"
    value {
      tensor {
        dtype: DT_INT64
        tensor_shape {
        }
        int64_val: 0
      }
    }
  }
}
node {
  name: "global_step/add"
  op: "Add"
  input: "global_step/cond/Merge"
  input: "global_step/add/y"
  attr {
    key: "T"
    value {
      type: DT_INT64
    }
  }
  attr {
    key: "_output_shapes"
    value {
      list {
        shape {
        }
      }
    }
  }
}
node {
  name: "Log1p/x"
  op: "Const"
  device: "/device:CPU:0"
  attr {
    key: "_output_shapes"
    value {
      list {
        shape {
          dim {
            size: 404
          }
          dim {
            size: 13
          }
        }
      }
    }
  }
  attr {
    key: "dtype"
    value {
      type: DT_DOUBLE
    }
  }
  attr {
    key: "value"
    value {
      tensor {
        dtype: DT_DOUBLE
        tensor_shape {
          dim {
            size: 404
          }
          dim {
            size: 13
          }
        }
        tensor_content: "…"
      }
    }
  }
}
node {
  name: "Log1p"
  op: "Log1p"
  input: "Log1p/x"
  device: "/device:CPU:0"
  attr {
    key: "T"
    value {
      type: DT_DOUBLE
    }
  }
  attr {
    key: "_output_shapes"
    value {
      list {
        shape {
          dim {
            size: 404
          }
          dim {
            size: 13
          }
        }
      }
    }
  }
}
node {
  name: "Log1p_1/x"
  op: "Const"
  device: "/device:CPU:0"
  attr {
    key: "_output_shapes"
    value {
      list {
        shape {
          dim {
            size: 404
          }
        }
      }
    }
  }
  attr {
    key: "dtype"
    value {
      type: DT_DOUBLE
    }
  }
  attr {
    key: "value"
    value {
      tensor {
        dtype: DT_DOUBLE
        tensor_shape {
          dim {
            size: 404
          }
        }
        tensor_content: "…"
      }
    }
  }
}
node {
  name: "Log1p_1"
  op: "Log1p"
  input: "Log1p_1/x"
  device: "/device:CPU:0"
  attr {
    key: "T"
    value {
      type: DT_DOUBLE
    }
  }
  attr {
    key: "_output_shapes"
    value {
      list {
        shape {
          dim {
            size: 404
          }
        }
      }
    }
  }
}
node {
  name: "buffer_size"
  op: "Const"
  device: "/device:CPU:0"
  attr {
    key: "_output_shapes"
    value {
      list {
        shape {
        }
      }
    }
  }
  attr {
    key: "dtype"
    value {
      type: DT_INT64
    }
  }
  attr {
    key: "value"
    value {
      tensor {
        dtype: DT_INT64
        tensor_shape {
        }
        int64_val: 320
      }
    }
  }
}
node {
  name: "seed"
  op: "Const"
  device: "/device:CPU:0"
  attr {
    key: "_output_shapes"
    value {
      list {
        shape {
        }
      }
    }
  }
  attr {
    key: "dtype"
    value {
      type: DT_INT64
    }
  }
  attr {
    key: "value"
    value {
      tensor {
        dtype: DT_INT64
        tensor_shape {
        }
        int64_val: 42
      }
    }
  }
}
node {
  name: "seed2/Const"
  op: "Const"
  device: "/device:CPU:0"
  attr {
    key: "_output_shapes"
    value {
      list {
        shape {
        }
      }
    }
  }
  attr {
    key: "dtype"
    value {
      type: DT_INT64
    }
  }
  attr {
    key: "value"
    value {
      tensor {
        dtype: DT_INT64
        tensor_shape {
        }
        int64_val: 42
      }
    }
  }
}
node {
  name: "seed2/Equal/y"
  op: "Const"
  device: "/device:CPU:0"
  attr {
    key: "_output_shapes"
    value {
      list {
        shape {
        }
      }
    }
  }
  attr {
    key: "dtype"
    value {
      type: DT_INT64
    }
  }
  attr {
    key: "value"
    value {
      tensor {
        dtype: DT_INT64
        tensor_shape {
        }
        int64_val: 0
      }
    }
  }
}
node {
  name: "seed2/Equal"
  op: "Equal"
  input: "seed"
  input: "seed2/Equal/y"
  device: "/device:CPU:0"
  attr {
    key: "T"
    value {
      type: DT_INT64
    }
  }
  attr {
    key: "_output_shapes"
    value {
      list {
        shape {
        }
      }
    }
  }
}
node {
  name: "seed2/Equal_1/y"
  op: "Const"
  device: "/device:CPU:0"
  attr {
    key: "_output_shapes"
    value {
      list {
        shape {
        }
      }
    }
  }
  attr {
    key: "dtype"
    value {
      type: DT_INT64
    }
  }
  attr {
    key: "value"
    value {
      tensor {
        dtype: DT_INT64
        tensor_shape {
        }
        int64_val: 0
      }
    }
  }
}
node {
  name: "seed2/Equal_1"
  op: "Equal"
  input: "seed2/Const"
  input: "seed2/Equal_1/y"
  device: "/device:CPU:0"
  attr {
    key: "T"
    value {
      type: DT_INT64
    }
  }
  attr {
    key: "_output_shapes"
    value {
      list {
        shape {
        }
      }
    }
  }
}
node {
  name: "seed2/LogicalAnd"
  op: "LogicalAnd"
  input: "seed2/Equal"
  input: "seed2/Equal_1"
  device: "/device:CPU:0"
  attr {
    key: "_output_shapes"
    value {
      list {
        shape {
        }
      }
    }
  }
}
node {
  name: "seed2/Const_1"
  op: "Const"
  device: "/device:CPU:0"
  attr {
    key: "_output_shapes"
    value {
      list {
        shape {
        }
      }
    }
  }
  attr {
    key: "dtype"
    value {
      type: DT_INT64
    }
  }
  attr {
    key: "value"
    value {
      tensor {
        dtype: DT_INT64
        tensor_shape {
        }
        int64_val: 2147483647
      }
    }
  }
}
node {
  name: "seed2"
  op: "Select"
  input: "seed2/LogicalAnd"
  input: "seed2/Const_1"
  input: "seed2/Const"
  device: "/device:CPU:0"
  attr {
    key: "T"
    value {
      type: DT_INT64
    }
  }
  attr {
    key: "_output_shapes"
    value {
      list {
        shape {
        }
      }
    }
  }
}
node {
  name: "count"
  op: "Const"
  device: "/device:CPU:0"
  attr {
    key: "_output_shapes"
    value {
      list {
        shape {
        }
      }
    }
  }
  attr {
    key: "dtype"
    value {
      type: DT_INT64
    }
  }
  attr {
    key: "value"
    value {
      tensor {
        dtype: DT_INT64
        tensor_shape {
        }
        int64_val: -1
      }
    }
  }
}
node {
  name: "batch_size"
  op: "Const"
  device: "/device:CPU:0"
  attr {
    key: "_output_shapes"
    value {
      list {
        shape {
        }
      }
    }
  }
  attr {
    key: "dtype"
    value {
      type: DT_INT64
    }
  }
  attr {
    key: "value"
    value {
      tensor {
        dtype: DT_INT64
        tensor_shape {
        }
        int64_val: 32
      }
    }
  }
}
node {
  name: "drop_remainder"
  op: "Const"
  device: "/device:CPU:0"
  attr {
    key: "_output_shapes"
    value {
      list {
        shape {
        }
      }
    }
  }
  attr {
    key: "dtype"
    value {
      type: DT_BOOL
    }
  }
  attr {
    key: "value"
    value {
      tensor {
        dtype: DT_BOOL
        tensor_shape {
        }
        bool_val: false
      }
    }
  }
}
node {
  name: "OneShotIterator"
  op: "OneShotIterator"
  device: "/device:CPU:0"
  attr {
    key: "_output_shapes"
    value {
      list {
        shape {
        }
      }
    }
  }
  attr {
    key: "container"
    value {
      s: ""
    }
  }
  attr {
    key: "dataset_factory"
    value {
      func {
        name: "_make_dataset_MrwY7mJkblE"
      }
    }
  }
  attr {
    key: "output_shapes"
    value {
      list {
        shape {
          dim {
            size: -1
          }
          dim {
            size: 13
          }
        }
        shape {
          dim {
            size: -1
          }
        }
      }
    }
  }
  attr {
    key: "output_types"
    value {
      list {
        type: DT_DOUBLE
        type: DT_DOUBLE
      }
    }
  }
  attr {
    key: "shared_name"
    value {
      s: ""
    }
  }
}
node {
  name: "IteratorToStringHandle"
  op: "IteratorToStringHandle"
  input: "OneShotIterator"
  device: "/device:CPU:0"
  attr {
    key: "_output_shapes"
    value {
      list {
        shape {
        }
      }
    }
  }
}
node {
  name: "IteratorGetNext"
  op: "IteratorGetNext"
  input: "OneShotIterator"
  device: "/device:CPU:0"
  attr {
    key: "_output_shapes"
    value {
      list {
        shape {
          dim {
            size: -1
          }
          dim {
            size: 13
          }
        }
        shape {
          dim {
            size: -1
          }
        }
      }
    }
  }
  attr {
    key: "output_shapes"
    value {
      list {
        shape {
          dim {
            size: -1
          }
          dim {
            size: 13
          }
        }
        shape {
          dim {
            size: -1
          }
        }
      }
    }
  }
  attr {
    key: "output_types"
    value {
      list {
        type: DT_DOUBLE
        type: DT_DOUBLE
      }
    }
  }
}
node {
  name: "unwrapped_x"
  op: "Identity"
  input: "IteratorGetNext"
  attr {
    key: "T"
    value {
      type: DT_DOUBLE
    }
  }
  attr {
    key: "_output_shapes"
    value {
      list {
        shape {
          dim {
            size: -1
          }
          dim {
            size: 13
          }
        }
      }
    }
  }
}
node {
  name: "wrapped_x"
  op: "Identity"
  input: "unwrapped_x"
  attr {
    key: "T"
    value {
      type: DT_DOUBLE
    }
  }
  attr {
    key: "_output_shapes"
    value {
      list {
        shape {
          dim {
            size: -1
          }
          dim {
            size: 13
          }
        }
      }
    }
  }
}
node {
  name: "IteratorGetNext_1"
  op: "Placeholder"
  attr {
    key: "_output_shapes"
    value {
      list {
        shape {
          dim {
            size: -1
          }
          dim {
            size: 13
          }
        }
      }
    }
  }
  attr {
    key: "dtype"
    value {
      type: DT_DOUBLE
    }
  }
  attr {
    key: "shape"
    value {
      shape {
        dim {
          size: -1
        }
        dim {
          size: 13
        }
      }
    }
  }
}
node {
  name: "unwrapped_x_1"
  op: "Identity"
  input: "IteratorGetNext_1"
  attr {
    key: "T"
    value {
      type: DT_DOUBLE
    }
  }
  attr {
    key: "_output_shapes"
    value {
      list {
        shape {
          dim {
            size: -1
          }
          dim {
            size: 13
          }
        }
      }
    }
  }
}
node {
  name: "wrapped_x_4"
  op: "Identity"
  input: "wrapped_x"
  attr {
    key: "T"
    value {
      type: DT_DOUBLE
    }
  }
  attr {
    key: "_output_shapes"
    value {
      list {
        shape {
          dim {
            size: -1
          }
          dim {
            size: 13
          }
        }
      }
    }
  }
}
node {
  name: "wrapped_x_3"
  op: "Identity"
  input: "wrapped_x_4"
  attr {
    key: "T"
    value {
      type: DT_DOUBLE
    }
  }
  attr {
    key: "_output_shapes"
    value {
      list {
        shape {
          dim {
            size: -1
          }
          dim {
            size: 13
          }
        }
      }
    }
  }
}
node {
  name: "wrapped_x_2"
  op: "Identity"
  input: "wrapped_x_3"
  attr {
    key: "T"
    value {
      type: DT_DOUBLE
    }
  }
  attr {
    key: "_output_shapes"
    value {
      list {
        shape {
          dim {
            size: -1
          }
          dim {
            size: 13
          }
        }
      }
    }
  }
}
node {
  name: "wrapped_x_1"
  op: "Identity"
  input: "wrapped_x_2"
  attr {
    key: "T"
    value {
      type: DT_DOUBLE
    }
  }
  attr {
    key: "_output_shapes"
    value {
      list {
        shape {
          dim {
            size: -1
          }
          dim {
            size: 13
          }
        }
      }
    }
  }
}
node {
  name: "adanet/iteration_0/step/Initializer/zeros"
  op: "Const"
  attr {
    key: "_class"
    value {
      list {
        s: "loc:@adanet/iteration_0/step"
      }
    }
  }
  attr {
    key: "_output_shapes"
    value {
      list {
        shape {
        }
      }
    }
  }
  attr {
    key: "dtype"
    value {
      type: DT_INT64
    }
  }
  attr {
    key: "value"
    value {
      tensor {
        dtype: DT_INT64
        tensor_shape {
        }
        int64_val: 0
      }
    }
  }
}
node {
  name: "adanet/iteration_0/step"
  op: "VariableV2"
  attr {
    key: "_class"
    value {
      list {
        s: "loc:@adanet/iteration_0/step"
      }
    }
  }
  attr {
    key: "_output_shapes"
    value {
      list {
        shape {
        }
      }
    }
  }
  attr {
    key: "container"
    value {
      s: ""
    }
  }
  attr {
    key: "dtype"
    value {
      type: DT_INT64
    }
  }
  attr {
    key: "shape"
    value {
      shape {
      }
    }
  }
  attr {
    key: "shared_name"
    value {
      s: ""
    }
  }
}
node {
  name: "adanet/iteration_0/step/Assign"
  op: "Assign"
  input: "adanet/iteration_0/step"
  input: "adanet/iteration_0/step/Initializer/zeros"
  attr {
    key: "T"
    value {
      type: DT_INT64
    }
  }
  attr {
    key: "_class"
    value {
      list {
        s: "loc:@adanet/iteration_0/step"
      }
    }
  }
  attr {
    key: "_output_shapes"
    value {
      list {
        shape {
        }
      }
    }
  }
  attr {
    key: "use_locking"
    value {
      b: true
    }
  }
  attr {
    key: "validate_shape"
    value {
      b: true
    }
  }
}
node {
  name: "adanet/iteration_0/step/read"
  op: "Identity"
  input: "adanet/iteration_0/step"
  attr {
    key: "T"
    value {
      type: DT_INT64
    }
  }
  attr {
    key: "_class"
    value {
      list {
        s: "loc:@adanet/iteration_0/step"
      }
    }
  }
  attr {
    key: "_output_shapes"
    value {
      list {
        shape {
        }
      }
    }
  }
}
node {
  name: "adanet/iteration_0/ensemble_1_layer_dnn/bias/Initializer/zeros"
  op: "Const"
  attr {
    key: "_class"
    value {
      list {
        s: "loc:@adanet/iteration_0/ensemble_1_layer_dnn/bias"
      }
    }
  }
  attr {
    key: "_output_shapes"
    value {
      list {
        shape {
          dim {
            size: 1
          }
        }
      }
    }
  }
  attr {
    key: "dtype"
    value {
      type: DT_FLOAT
    }
  }
  attr {
    key: "value"
    value {
      tensor {
        dtype: DT_FLOAT
        tensor_shape {
          dim {
            size: 1
          }
        }
        float_val: 0.0
      }
    }
  }
}
node {
  name: "adanet/iteration_0/ensemble_1_layer_dnn/bias"
  op: "VariableV2"
  attr {
    key: "_class"
    value {
      list {
        s: "loc:@adanet/iteration_0/ensemble_1_layer_dnn/bias"
      }
    }
  }
  attr {
    key: "_output_shapes"
    value {
      list {
        shape {
          dim {
            size: 1
          }
        }
      }
    }
  }
  attr {
    key: "container"
    value {
      s: ""
    }
  }
  attr {
    key: "dtype"
    value {
      type: DT_FLOAT
    }
  }
  attr {
    key: "shape"
    value {
      shape {
        dim {
          size: 1
        }
      }
    }
  }
  attr {
    key: "shared_name"
    value {
      s: ""
    }
  }
}
node {
  name: "adanet/iteration_0/ensemble_1_layer_dnn/bias/Assign"
  op: "Assign"
  input: "adanet/iteration_0/ensemble_1_layer_dnn/bias"
  input: "adanet/iteration_0/ensemble_1_layer_dnn/bias/Initializer/zeros"
  attr {
    key: "T"
    value {
      type: DT_FLOAT
    }
  }
  attr {
    key: "_class"
    value {
      list {
        s: "loc:@adanet/iteration_0/ensemble_1_layer_dnn/bias"
      }
    }
  }
  attr {
    key: "_output_shapes"
    value {
      list {
        shape {
          dim {
            size: 1
          }
        }
      }
    }
  }
  attr {
    key: "use_locking"
    value {
      b: true
    }
  }
  attr {
    key: "validate_shape"
    value {
      b: true
    }
  }
}
node {
  name: "adanet/iteration_0/ensemble_1_layer_dnn/bias/read"
  op: "Identity"
  input: "adanet/iteration_0/ensemble_1_layer_dnn/bias"
  attr {
    key: "T"
    value {
      type: DT_FLOAT
    }
  }
  attr {
    key: "_class"
    value {
      list {
        s: "loc:@adanet/iteration_0/ensemble_1_layer_dnn/bias"
      }
    }
  }
  attr {
    key: "_output_shapes"
    value {
      list {
        shape {
          dim {
            size: 1
          }
        }
      }
    }
  }
}
node {
  name: "adanet/iteration_0/ensemble_1_layer_dnn/weighted_subnetwork_0/subnetwork/ToFloat"
  op: "Cast"
  input: "wrapped_x_1"
  attr {
    key: "DstT"
    value {
      type: DT_FLOAT
    }
  }
  attr {
    key: "SrcT"
    value {
      type: DT_DOUBLE
    }
  }
  attr {
    key: "_output_shapes"
    value {
      list {
        shape {
          dim {
            size: -1
          }
          dim {
            size: 13
          }
        }
      }
    }
  }
}
node {
  name: "adanet/iteration_0/ensemble_1_layer_dnn/weighted_subnetwork_0/subnetwork/dense/kernel/Initializer/random_uniform/shape"
  op: "Const"
  attr {
    key: "_class"
    value {
      list {
        s: "loc:@adanet/iteration_0/ensemble_1_layer_dnn/weighted_subnetwork_0/subnetwork/dense/kernel"
      }
    }
  }
  attr {
    key: "_output_shapes"
    value {
      list {
        shape {
          dim {
            size: 2
          }
        }
      }
    }
  }
  attr {
    key: "dtype"
    value {
      type: DT_INT32
    }
  }
  attr {
    key: "value"
    value {
      tensor {
        dtype: DT_INT32
        tensor_shape {
          dim {
            size: 2
          }
        }
        tensor_content: "\r\000\000\000 \000\000\000"
      }
    }
  }
}
node {
  name: "adanet/iteration_0/ensemble_1_layer_dnn/weighted_subnetwork_0/subnetwork/dense/kernel/Initializer/random_uniform/min"
  op: "Const"
  attr {
    key: "_class"
    value {
      list {
        s: "loc:@adanet/iteration_0/ensemble_1_layer_dnn/weighted_subnetwork_0/subnetwork/dense/kernel"
      }
    }
  }
  attr {
    key: "_output_shapes"
    value {
      list {
        shape {
        }
      }
    }
  }
  attr {
    key: "dtype"
    value {
      type: DT_FLOAT
    }
  }
  attr {
    key: "value"
    value {
      tensor {
        dtype: DT_FLOAT
        tensor_shape {
        }
        float_val: -0.3651483654975891
      }
    }
  }
}
node {
  name: "adanet/iteration_0/ensemble_1_layer_dnn/weighted_subnetwork_0/subnetwork/dense/kernel/Initializer/random_uniform/max"
  op: "Const"
  attr {
    key: "_class"
    value {
      list {
        s: "loc:@adanet/iteration_0/ensemble_1_layer_dnn/weighted_subnetwork_0/subnetwork/dense/kernel"
      }
    }
  }
  attr {
    key: "_output_shapes"
    value {
      list {
        shape {
        }
      }
    }
  }
  attr {
    key: "dtype"
    value {
      type: DT_FLOAT
    }
  }
  attr {
    key: "value"
    value {
      tensor {
        dtype: DT_FLOAT
        tensor_shape {
        }
        float_val: 0.3651483654975891
      }
    }
  }
}
node {
  name: "adanet/iteration_0/ensemble_1_layer_dnn/weighted_subnetwork_0/subnetwork/dense/kernel/Initializer/random_uniform/RandomUniform"
  op: "RandomUniform"
  input: "adanet/iteration_0/ensemble_1_layer_dnn/weighted_subnetwork_0/subnetwork/dense/kernel/Initializer/random_uniform/shape"
  attr {
    key: "T"
    value {
      type: DT_INT32
    }
  }
  attr {
    key: "_class"
    value {
      list {
        s: "loc:@adanet/iteration_0/ensemble_1_layer_dnn/weighted_subnetwork_0/subnetwork/dense/kernel"
      }
    }
  }
  attr {
    key: "_output_shapes"
    value {
      list {
        shape {
          dim {
            size: 13
          }
          dim {
            size: 32
          }
        }
      }
    }
  }
  attr {
    key: "dtype"
    value {
      type: DT_FLOAT
    }
  }
  attr {
    key: "seed"
    value {
      i: 87654321
    }
  }
  attr {
    key: "seed2"
    value {
      i: 42
    }
  }
}
node {
  name: "adanet/iteration_0/ensemble_1_layer_dnn/weighted_subnetwork_0/subnetwork/dense/kernel/Initializer/random_uniform/sub"
  op: "Sub"
  input: "adanet/iteration_0/ensemble_1_layer_dnn/weighted_subnetwork_0/subnetwork/dense/kernel/Initializer/random_uniform/max"
  input: "adanet/iteration_0/ensemble_1_layer_dnn/weighted_subnetwork_0/subnetwork/dense/kernel/Initializer/random_uniform/min"
  attr {
    key: "T"
    value {
      type: DT_FLOAT
    }
  }
  attr {
    key: "_class"
    value {
      list {
        s: "loc:@adanet/iteration_0/ensemble_1_layer_dnn/weighted_subnetwork_0/subnetwork/dense/kernel"
      }
    }
  }
  attr {
    key: "_output_shapes"
    value {
      list {
        shape {
        }
      }
    }
  }
}
node {
  name: "adanet/iteration_0/ensemble_1_layer_dnn/weighted_subnetwork_0/subnetwork/dense/kernel/Initializer/random_uniform/mul"
  op: "Mul"
  input: "adanet/iteration_0/ensemble_1_layer_dnn/weighted_subnetwork_0/subnetwork/dense/kernel/Initializer/random_uniform/RandomUniform"
  input: "adanet/iteration_0/ensemble_1_layer_dnn/weighted_subnetwork_0/subnetwork/dense/kernel/Initializer/random_uniform/sub"
  attr {
    key: "T"
    value {
      type: DT_FLOAT
    }
  }
  attr {
    key: "_class"
    value {
      list {
        s: "loc:@adanet/iteration_0/ensemble_1_layer_dnn/weighted_subnetwork_0/subnetwork/dense/kernel"
      }
    }
  }
  attr {
    key: "_output_shapes"
    value {
      list {
        shape {
          dim {
            size: 13
          }
          dim {
            size: 32
          }
        }
      }
    }
  }
}
node {
  name: "adanet/iteration_0/ensemble_1_layer_dnn/weighted_subnetwork_0/subnetwork/dense/kernel/Initializer/random_uniform"
  op: "Add"
  input: "adanet/iteration_0/ensemble_1_layer_dnn/weighted_subnetwork_0/subnetwork/dense/kernel/Initializer/random_uniform/mul"
  input: "adanet/iteration_0/ensemble_1_layer_dnn/weighted_subnetwork_0/subnetwork/dense/kernel/Initializer/random_uniform/min"
  attr {
    key: "T"
    value {
      type: DT_FLOAT
    }
  }
  attr {
    key: "_class"
    value {
      list {
        s: "loc:@adanet/iteration_0/ensemble_1_layer_dnn/weighted_subnetwork_0/subnetwork/dense/kernel"
      }
    }
  }
  attr {
    key: "_output_shapes"
    value {
      list {
        shape {
          dim {
            size: 13
          }
          dim {
            size: 32
          }
        }
      }
    }
  }
}
node {
  name: "adanet/iteration_0/ensemble_1_layer_dnn/weighted_subnetwork_0/subnetwork/dense/kernel"
  op: "VariableV2"
  attr {
    key: "_class"
    value {
      list {
        s: "loc:@adanet/iteration_0/ensemble_1_layer_dnn/weighted_subnetwork_0/subnetwork/dense/kernel"
      }
    }
  }
  attr {
    key: "_output_shapes"
    value {
      list {
        shape {
          dim {
            size: 13
          }
          dim {
            size: 32
          }
        }
      }
    }
  }
  attr {
    key: "container"
    value {
      s: ""
    }
  }
  attr {
    key: "dtype"
    value {
      type: DT_FLOAT
    }
  }
  attr {
    key: "shape"
    value {
      shape {
        dim {
          size: 13
        }
        dim {
          size: 32
        }
      }
    }
  }
  attr {
    key: "shared_name"
    value {
      s: ""
    }
  }
}
node {
  name: "adanet/iteration_0/ensemble_1_layer_dnn/weighted_subnetwork_0/subnetwork/dense/kernel/Assign"
  op: "Assign"
  input: "adanet/iteration_0/ensemble_1_layer_dnn/weighted_subnetwork_0/subnetwork/dense/kernel"
  input: "adanet/iteration_0/ensemble_1_layer_dnn/weighted_subnetwork_0/subnetwork/dense/kernel/Initializer/random_uniform"
  attr {
    key: "T"
    value {
      type: DT_FLOAT
    }
  }
  attr {
    key: "_class"
    value {
      list {
        s: "loc:@adanet/iteration_0/ensemble_1_layer_dnn/weighted_subnetwork_0/subnetwork/dense/kernel"
      }
    }
  }
  attr {
    key: "_output_shapes"
    value {
      list {
        shape {
          dim {
            size: 13
          }
          dim {
            size: 32
          }
        }
      }
    }
  }
  attr {
    key: "use_locking"
    value {
      b: true
    }
  }
  attr {
    key: "validate_shape"
    value {
      b: true
    }
  }
}
node {
  name: "adanet/iteration_0/ensemble_1_layer_dnn/weighted_subnetwork_0/subnetwork/dense/kernel/read"
  op: "Identity"
  input: "adanet/iteration_0/ensemble_1_layer_dnn/weighted_subnetwork_0/subnetwork/dense/kernel"
  attr {
    key: "T"
    value {
      type: DT_FLOAT
    }
  }
  attr {
    key: "_class"
    value {
      list {
        s: "loc:@adanet/iteration_0/ensemble_1_layer_dnn/weighted_subnetwork_0/subnetwork/dense/kernel"
      }
    }
  }
  attr {
    key: "_output_shapes"
    value {
      list {
        shape {
          dim {
            size: 13
          }
          dim {
            size: 32
          }
        }
      }
    }
  }
}
node {
  name: "adanet/iteration_0/ensemble_1_layer_dnn/weighted_subnetwork_0/subnetwork/dense/bias/Initializer/zeros"
  op: "Const"
  attr {
    key: "_class"
    value {
      list {
        s: "loc:@adanet/iteration_0/ensemble_1_layer_dnn/weighted_subnetwork_0/subnetwork/dense/bias"
      }
    }
  }
  attr {
    key: "_output_shapes"
    value {
      list {
        shape {
          dim {
            size: 32
          }
        }
      }
    }
  }
  attr {
    key: "dtype"
    value {
      type: DT_FLOAT
    }
  }
  attr {
    key: "value"
    value {
      tensor {
        dtype: DT_FLOAT
        tensor_shape {
          dim {
            size: 32
          }
        }
        float_val: 0.0
      }
    }
  }
}
node {
  name: "adanet/iteration_0/ensemble_1_layer_dnn/weighted_subnetwork_0/subnetwork/dense/bias"
  op: "VariableV2"
  attr {
    key: "_class"
    value {
      list {
        s: "loc:@adanet/iteration_0/ensemble_1_layer_dnn/weighted_subnetwork_0/subnetwork/dense/bias"
      }
    }
  }
  attr {
    key: "_output_shapes"
    value {
      list {
        shape {
          dim {
            size: 32
          }
        }
      }
    }
  }
  attr {
    key: "container"
    value {
      s: ""
    }
  }
  attr {
    key: "dtype"
    value {
      type: DT_FLOAT
    }
  }
  attr {
    key: "shape"
    value {
      shape {
        dim {
          size: 32
        }
      }
    }
  }
  attr {
    key: "shared_name"
    value {
      s: ""
    }
  }
}
node {
  name: "adanet/iteration_0/ensemble_1_layer_dnn/weighted_subnetwork_0/subnetwork/dense/bias/Assign"
  op: "Assign"
  input: "adanet/iteration_0/ensemble_1_layer_dnn/weighted_subnetwork_0/subnetwork/dense/bias"
  input: "adanet/iteration_0/ensemble_1_layer_dnn/weighted_subnetwork_0/subnetwork/dense/bias/Initializer/zeros"
  attr {
    key: "T"
    value {
      type: DT_FLOAT
    }
  }
  attr {
    key: "_class"
    value {
      list {
        s: "loc:@adanet/iteration_0/ensemble_1_layer_dnn/weighted_subnetwork_0/subnetwork/dense/bias"
      }
    }
  }
  attr {
    key: "_output_shapes"
    value {
      list {
        shape {
          dim {
            size: 32
          }
        }
      }
    }
  }
  attr {
    key: "use_locking"
    value {
      b: true
    }
  }
  attr {
    key: "validate_shape"
    value {
      b: true
    }
  }
}
node {
  name: "adanet/iteration_0/ensemble_1_layer_dnn/weighted_subnetwork_0/subnetwork/dense/bias/read"
  op: "Identity"
  input: "adanet/iteration_0/ensemble_1_layer_dnn/weighted_subnetwork_0/subnetwork/dense/bias"
  attr {
    key: "T"
    value {
      type: DT_FLOAT
    }
  }
  attr {
    key: "_class"
    value {
      list {
        s: "loc:@adanet/iteration_0/ensemble_1_layer_dnn/weighted_subnetwork_0/subnetwork/dense/bias"
      }
    }
  }
  attr {
    key: "_output_shapes"
    value {
      list {
        shape {
          dim {
            size: 32
          }
        }
      }
    }
  }
}
node {
  name: "adanet/iteration_0/ensemble_1_layer_dnn/weighted_subnetwork_0/subnetwork/dense/MatMul"
  op: "MatMul"
  input: "adanet/iteration_0/ensemble_1_layer_dnn/weighted_subnetwork_0/subnetwork/ToFloat"
  input: "adanet/iteration_0/ensemble_1_layer_dnn/weighted_subnetwork_0/subnetwork/dense/kernel/read"
  attr {
    key: "T"
    value {
      type: DT_FLOAT
    }
  }
  attr {
    key: "_output_shapes"
    value {
      list {
        shape {
          dim {
            size: -1
          }
          dim {
            size: 32
          }
        }
      }
    }
  }
  attr {
    key: "transpose_a"
    value {
      b: false
    }
  }
  attr {
    key: "transpose_b"
    value {
      b: false
    }
  }
}
node {
  name: "adanet/iteration_0/ensemble_1_layer_dnn/weighted_subnetwork_0/subnetwork/dense/BiasAdd"
  op: "BiasAdd"
  input: "adanet/iteration_0/ensemble_1_layer_dnn/weighted_subnetwork_0/subnetwork/dense/MatMul"
  input: "adanet/iteration_0/ensemble_1_layer_dnn/weighted_subnetwork_0/subnetwork/dense/bias/read"
  attr {
    key: "T"
    value {
      type: DT_FLOAT
    }
  }
  attr {
    key: "_output_shapes"
    value {
      list {
        shape {
          dim {
            size: -1
          }
          dim {
            size: 32
          }
        }
      }
    }
  }
  attr {
    key: "data_format"
    value {
      s: "NHWC"
    }
  }
}
node {
  name: "adanet/iteration_0/ensemble_1_layer_dnn/weighted_subnetwork_0/subnetwork/dense/Relu"
  op: "Relu"
  input: "adanet/iteration_0/ensemble_1_layer_dnn/weighted_subnetwork_0/subnetwork/dense/BiasAdd"
  attr {
    key: "T"
    value {
      type: DT_FLOAT
    }
  }
  attr {
    key: "_output_shapes"
    value {
      list {
        shape {
          dim {
            size: -1
          }
          dim {
            size: 32
          }
        }
      }
    }
  }
}
node {
  name: "adanet/iteration_0/ensemble_1_layer_dnn/weighted_subnetwork_0/subnetwork/dense_1/kernel/Initializer/random_uniform/shape"
  op: "Const"
  attr {
    key: "_class"
    value {
      list {
        s: "loc:@adanet/iteration_0/ensemble_1_layer_dnn/weighted_subnetwork_0/subnetwork/dense_1/kernel"
      }
    }
  }
  attr {
    key: "_output_shapes"
    value {
      list {
        shape {
          dim {
            size: 2
          }
        }
      }
    }
  }
  attr {
    key: "dtype"
    value {
      type: DT_INT32
    }
  }
  attr {
    key: "value"
    value {
      tensor {
        dtype: DT_INT32
        tensor_shape {
          dim {
            size: 2
          }
        }
        tensor_content: " \000\000\000\001\000\000\000"
      }
    }
  }
}
node {
  name: "adanet/iteration_0/ensemble_1_layer_dnn/weighted_subnetwork_0/subnetwork/dense_1/kernel/Initializer/random_uniform/min"
  op: "Const"
  attr {
    key: "_class"
    value {
      list {
        s: "loc:@adanet/iteration_0/ensemble_1_layer_dnn/weighted_subnetwork_0/subnetwork/dense_1/kernel"
      }
    }
  }
  attr {
    key: "_output_shapes"
    value {
      list {
        shape {
        }
      }
    }
  }
  attr {
    key: "dtype"
    value {
      type: DT_FLOAT
    }
  }
  attr {
    key: "value"
    value {
      tensor {
        dtype: DT_FLOAT
        tensor_shape {
        }
        float_val: -0.42640143632888794
      }
    }
  }
}
node {
  name: "adanet/iteration_0/ensemble_1_layer_dnn/weighted_subnetwork_0/subnetwork/dense_1/kernel/Initializer/random_uniform/max"
  op: "Const"
  attr {
    key: "_class"
    value {
      list {
        s: "loc:@adanet/iteration_0/ensemble_1_layer_dnn/weighted_subnetwork_0/subnetwork/dense_1/kernel"
      }
    }
  }
  attr {
    key: "_output_shapes"
    value {
      list {
        shape {
        }
      }
    }
  }
  attr {
    key: "dtype"
    value {
      type: DT_FLOAT
    }
  }
  attr {
    key: "value"
    value {
      tensor {
        dtype: DT_FLOAT
        tensor_shape {
        }
        float_val: 0.42640143632888794
      }
    }
  }
}
node {
  name: "adanet/iteration_0/ensemble_1_layer_dnn/weighted_subnetwork_0/subnetwork/dense_1/kernel/Initializer/random_uniform/RandomUniform"
  op: "RandomUniform"
  input: "adanet/iteration_0/ensemble_1_layer_dnn/weighted_subnetwork_0/subnetwork/dense_1/kernel/Initializer/random_uniform/shape"
  attr {
    key: "T"
    value {
      type: DT_INT32
    }
  }
  attr {
    key: "_class"
    value {
      list {
        s: "loc:@adanet/iteration_0/ensemble_1_layer_dnn/weighted_subnetwork_0/subnetwork/dense_1/kernel"
      }
    }
  }
  attr {
    key: "_output_shapes"
    value {
      list {
        shape {
          dim {
            size: 32
          }
          dim {
            size: 1
          }
        }
      }
    }
  }
  attr {
    key: "dtype"
    value {
      type: DT_FLOAT
    }
  }
  attr {
    key: "seed"
    value {
      i: 87654321
    }
  }
  attr {
    key: "seed2"
    value {
      i: 42
    }
  }
}
node {
  name: "adanet/iteration_0/ensemble_1_layer_dnn/weighted_subnetwork_0/subnetwork/dense_1/kernel/Initializer/random_uniform/sub"
  op: "Sub"
  input: "adanet/iteration_0/ensemble_1_layer_dnn/weighted_subnetwork_0/subnetwork/dense_1/kernel/Initializer/random_uniform/max"
  input: "adanet/iteration_0/ensemble_1_layer_dnn/weighted_subnetwork_0/subnetwork/dense_1/kernel/Initializer/random_uniform/min"
  attr {
    key: "T"
    value {
      type: DT_FLOAT
    }
  }
  attr {
    key: "_class"
    value {
      list {
        s: "loc:@adanet/iteration_0/ensemble_1_layer_dnn/weighted_subnetwork_0/subnetwork/dense_1/kernel"
      }
    }
  }
  attr {
    key: "_output_shapes"
    value {
      list {
        shape {
        }
      }
    }
  }
}
node {
  name: "adanet/iteration_0/ensemble_1_layer_dnn/weighted_subnetwork_0/subnetwork/dense_1/kernel/Initializer/random_uniform/mul"
  op: "Mul"
  input: "adanet/iteration_0/ensemble_1_layer_dnn/weighted_subnetwork_0/subnetwork/dense_1/kernel/Initializer/random_uniform/RandomUniform"
  input: "adanet/iteration_0/ensemble_1_layer_dnn/weighted_subnetwork_0/subnetwork/dense_1/kernel/Initializer/random_uniform/sub"
  attr {
    key: "T"
    value {
      type: DT_FLOAT
    }
  }
  attr {
    key: "_class"
    value {
      list {
        s: "loc:@adanet/iteration_0/ensemble_1_layer_dnn/weighted_subnetwork_0/subnetwork/dense_1/kernel"
      }
    }
  }
  attr {
    key: "_output_shapes"
    value {
      list {
        shape {
          dim {
            size: 32
          }
          dim {
            size: 1
          }
        }
      }
    }
  }
}
node {
  name: "adanet/iteration_0/ensemble_1_layer_dnn/weighted_subnetwork_0/subnetwork/dense_1/kernel/Initializer/random_uniform"
  op: "Add"
  input: "adanet/iteration_0/ensemble_1_layer_dnn/weighted_subnetwork_0/subnetwork/dense_1/kernel/Initializer/random_uniform/mul"
  input: "adanet/iteration_0/ensemble_1_layer_dnn/weighted_subnetwork_0/subnetwork/dense_1/kernel/Initializer/random_uniform/min"
  attr {
    key: "T"
    value {
      type: DT_FLOAT
    }
  }
  attr {
    key: "_class"
    value {
      list {
        s: "loc:@adanet/iteration_0/ensemble_1_layer_dnn/weighted_subnetwork_0/subnetwork/dense_1/kernel"
      }
    }
  }
  attr {
    key: "_output_shapes"
    value {
      list {
        shape {
          dim {
            size: 32
          }
          dim {
            size: 1
          }
        }
      }
    }
  }
}
node {
  name: "adanet/iteration_0/ensemble_1_layer_dnn/weighted_subnetwork_0/subnetwork/dense_1/kernel"
  op: "VariableV2"
  attr {
    key: "_class"
    value {
      list {
        s: "loc:@adanet/iteration_0/ensemble_1_layer_dnn/weighted_subnetwork_0/subnetwork/dense_1/kernel"
      }
    }
  }
  attr {
    key: "_output_shapes"
    value {
      list {
        shape {
          dim {
            size: 32
          }
          dim {
            size: 1
          }
        }
      }
    }
  }
  attr {
    key: "container"
    value {
      s: ""
    }
  }
  attr {
    key: "dtype"
    value {
      type: DT_FLOAT
    }
  }
  attr {
    key: "shape"
    value {
      shape {
        dim {
          size: 32
        }
        dim {
          size: 1
        }
      }
    }
  }
  attr {
    key: "shared_name"
    value {
      s: ""
    }
  }
}
node {
  name: "adanet/iteration_0/ensemble_1_layer_dnn/weighted_subnetwork_0/subnetwork/dense_1/kernel/Assign"
  op: "Assign"
  input: "adanet/iteration_0/ensemble_1_layer_dnn/weighted_subnetwork_0/subnetwork/dense_1/kernel"
  input: "adanet/iteration_0/ensemble_1_layer_dnn/weighted_subnetwork_0/subnetwork/dense_1/kernel/Initializer/random_uniform"
  attr {
    key: "T"
    value {
      type: DT_FLOAT
    }
  }
  attr {
    key: "_class"
    value {
      list {
        s: "loc:@adanet/iteration_0/ensemble_1_layer_dnn/weighted_subnetwork_0/subnetwork/dense_1/kernel"
      }
    }
  }
  attr {
    key: "_output_shapes"
    value {
      list {
        shape {
          dim {
            size: 32
          }
          dim {
            size: 1
          }
        }
      }
    }
  }
  attr {
    key: "use_locking"
    value {
      b: true
    }
  }
  attr {
    key: "validate_shape"
    value {
      b: true
    }
  }
}
node {
  name: "adanet/iteration_0/ensemble_1_layer_dnn/weighted_subnetwork_0/subnetwork/dense_1/kernel/read"
  op: "Identity"
  input: "adanet/iteration_0/ensemble_1_layer_dnn/weighted_subnetwork_0/subnetwork/dense_1/kernel"
  attr {
    key: "T"
    value {
      type: DT_FLOAT
    }
  }
  attr {
    key: "_class"
    value {
      list {
        s: "loc:@adanet/iteration_0/ensemble_1_layer_dnn/weighted_subnetwork_0/subnetwork/dense_1/kernel"
      }
    }
  }
  attr {
    key: "_output_shapes"
    value {
      list {
        shape {
          dim {
            size: 32
          }
          dim {
            size: 1
          }
        }
      }
    }
  }
}
node {
  name: "adanet/iteration_0/ensemble_1_layer_dnn/weighted_subnetwork_0/subnetwork/dense_1/bias/Initializer/zeros"
  op: "Const"
  attr {
    key: "_class"
    value {
      list {
        s: "loc:@adanet/iteration_0/ensemble_1_layer_dnn/weighted_subnetwork_0/subnetwork/dense_1/bias"
      }
    }
  }
  attr {
    key: "_output_shapes"
    value {
      list {
        shape {
          dim {
            size: 1
          }
        }
      }
    }
  }
  attr {
    key: "dtype"
    value {
      type: DT_FLOAT
    }
  }
  attr {
    key: "value"
    value {
      tensor {
        dtype: DT_FLOAT
        tensor_shape {
          dim {
            size: 1
          }
        }
        float_val: 0.0
      }
    }
  }
}
node {
  name: "adanet/iteration_0/ensemble_1_layer_dnn/weighted_subnetwork_0/subnetwork/dense_1/bias"
  op: "VariableV2"
  attr {
    key: "_class"
    value {
      list {
        s: "loc:@adanet/iteration_0/ensemble_1_layer_dnn/weighted_subnetwork_0/subnetwork/dense_1/bias"
      }
    }
  }
  attr {
    key: "_output_shapes"
    value {
      list {
        shape {
          dim {
            size: 1
          }
        }
      }
    }
  }
  attr {
    key: "container"
    value {
      s: ""
    }
  }
  attr {
    key: "dtype"
    value {
      type: DT_FLOAT
    }
  }
  attr {
    key: "shape"
    value {
      shape {
        dim {
          size: 1
        }
      }
    }
  }
  attr {
    key: "shared_name"
    value {
      s: ""
    }
  }
}
node {
  name: "adanet/iteration_0/ensemble_1_layer_dnn/weighted_subnetwork_0/subnetwork/dense_1/bias/Assign"
  op: "Assign"
  input: "adanet/iteration_0/ensemble_1_layer_dnn/weighted_subnetwork_0/subnetwork/dense_1/bias"
  input: "adanet/iteration_0/ensemble_1_layer_dnn/weighted_subnetwork_0/subnetwork/dense_1/bias/Initializer/zeros"
  attr {
    key: "T"
    value {
      type: DT_FLOAT
    }
  }
  attr {
    key: "_class"
    value {
      list {
        s: "loc:@adanet/iteration_0/ensemble_1_layer_dnn/weighted_subnetwork_0/subnetwork/dense_1/bias"
      }
    }
  }
  attr {
    key: "_output_shapes"
    value {
      list {
        shape {
          dim {
            size: 1
          }
        }
      }
    }
  }
  attr {
    key: "use_locking"
    value {
      b: true
    }
  }
  attr {
    key: "validate_shape"
    value {
      b: true
    }
  }
}
node {
  name: "adanet/iteration_0/ensemble_1_layer_dnn/weighted_subnetwork_0/subnetwork/dense_1/bias/read"
  op: "Identity"
  input: "adanet/iteration_0/ensemble_1_layer_dnn/weighted_subnetwork_0/subnetwork/dense_1/bias"
  attr {
    key: "T"
    value {
      type: DT_FLOAT
    }
  }
  attr {
    key: "_class"
    value {
      list {
        s: "loc:@adanet/iteration_0/ensemble_1_layer_dnn/weighted_subnetwork_0/subnetwork/dense_1/bias"
      }
    }
  }
  attr {
    key: "_output_shapes"
    value {
      list {
        shape {
          dim {
            size: 1
          }
        }
      }
    }
  }
}
node {
  name: "adanet/iteration_0/ensemble_1_layer_dnn/weighted_subnetwork_0/subnetwork/dense_1/MatMul"
  op: "MatMul"
  input: "adanet/iteration_0/ensemble_1_layer_dnn/weighted_subnetwork_0/subnetwork/dense/Relu"
  input: "adanet/iteration_0/ensemble_1_layer_dnn/weighted_subnetwork_0/subnetwork/dense_1/kernel/read"
  attr {
    key: "T"
    value {
      type: DT_FLOAT
    }
  }
  attr {
    key: "_output_shapes"
    value {
      list {
        shape {
          dim {
            size: -1
          }
          dim {
            size: 1
          }
        }
      }
    }
  }
  attr {
    key: "transpose_a"
    value {
      b: false
    }
  }
  attr {
    key: "transpose_b"
    value {
      b: false
    }
  }
}
node {
  name: "adanet/iteration_0/ensemble_1_layer_dnn/weighted_subnetwork_0/subnetwork/dense_1/BiasAdd"
  op: "BiasAdd"
  input: "adanet/iteration_0/ensemble_1_layer_dnn/weighted_subnetwork_0/subnetwork/dense_1/MatMul"
  input: "adanet/iteration_0/ensemble_1_layer_dnn/weighted_subnetwork_0/subnetwork/dense_1/bias/read"
  attr {
    key: "T"
    value {
      type: DT_FLOAT
    }
  }
  attr {
    key: "_output_shapes"
    value {
      list {
        shape {
          dim {
            size: -1
          }
          dim {
            size: 1
          }
        }
      }
    }
  }
  attr {
    key: "data_format"
    value {
      s: "NHWC"
    }
  }
}
node {
  name: "adanet/iteration_0/ensemble_1_layer_dnn/weighted_subnetwork_0/subnetwork/Const"
  op: "Const"
  attr {
    key: "_output_shapes"
    value {
      list {
        shape {
        }
      }
    }
  }
  attr {
    key: "dtype"
    value {
      type: DT_INT32
    }
  }
  attr {
    key: "value"
    value {
      tensor {
        dtype: DT_INT32
        tensor_shape {
        }
        int_val: 1
      }
    }
  }
}
node {
  name: "adanet/iteration_0/ensemble_1_layer_dnn/weighted_subnetwork_0/subnetwork/ToFloat_1/x"
  op: "Const"
  attr {
    key: "_output_shapes"
    value {
      list {
        shape {
        }
      }
    }
  }
  attr {
    key: "dtype"
    value {
      type: DT_INT32
    }
  }
  attr {
    key: "value"
    value {
      tensor {
        dtype: DT_INT32
        tensor_shape {
        }
        int_val: 1
      }
    }
  }
}
node {
  name: "adanet/iteration_0/ensemble_1_layer_dnn/weighted_subnetwork_0/subnetwork/ToFloat_1"
  op: "Cast"
  input: "adanet/iteration_0/ensemble_1_layer_dnn/weighted_subnetwork_0/subnetwork/ToFloat_1/x"
  attr {
    key: "DstT"
    value {
      type: DT_FLOAT
    }
  }
  attr {
    key: "SrcT"
    value {
      type: DT_INT32
    }
  }
  attr {
    key: "_output_shapes"
    value {
      list {
        shape {
        }
      }
    }
  }
}
node {
  name: "adanet/iteration_0/ensemble_1_layer_dnn/weighted_subnetwork_0/subnetwork/Sqrt"
  op: "Sqrt"
  input: "adanet/iteration_0/ensemble_1_layer_dnn/weighted_subnetwork_0/subnetwork/ToFloat_1"
  attr {
    key: "T"
    value {
      type: DT_FLOAT
    }
  }
  attr {
    key: "_output_shapes"
    value {
      list {
        shape {
        }
      }
    }
  }
}
node {
  name: "adanet/iteration_0/ensemble_1_layer_dnn/weighted_subnetwork_0/name"
  op: "Const"
  attr {
    key: "_output_shapes"
    value {
      list {
        shape {
        }
      }
    }
  }
  attr {
    key: "dtype"
    value {
      type: DT_STRING
    }
  }
  attr {
    key: "value"
    value {
      tensor {
        dtype: DT_STRING
        tensor_shape {
        }
        string_val: "1_layer_dnn"
      }
    }
  }
}
node {
  name: "adanet/iteration_0/ensemble_1_layer_dnn/weighted_subnetwork_0/logits/mixture_weight/Initializer/Const"
  op: "Const"
  attr {
    key: "_class"
    value {
      list {
        s: "loc:@adanet/iteration_0/ensemble_1_layer_dnn/weighted_subnetwork_0/logits/mixture_weight"
      }
    }
  }
  attr {
    key: "_output_shapes"
    value {
      list {
        shape {
        }
      }
    }
  }
  attr {
    key: "dtype"
    value {
      type: DT_FLOAT
    }
  }
  attr {
    key: "value"
    value {
      tensor {
        dtype: DT_FLOAT
        tensor_shape {
        }
        float_val: 1.0
      }
    }
  }
}
node {
  name: "adanet/iteration_0/ensemble_1_layer_dnn/weighted_subnetwork_0/logits/mixture_weight"
  op: "VariableV2"
  attr {
    key: "_class"
    value {
      list {
        s: "loc:@adanet/iteration_0/ensemble_1_layer_dnn/weighted_subnetwork_0/logits/mixture_weight"
      }
    }
  }
  attr {
    key: "_output_shapes"
    value {
      list {
        shape {
        }
      }
    }
  }
  attr {
    key: "container"
    value {
      s: ""
    }
  }
  attr {
    key: "dtype"
    value {
      type: DT_FLOAT
    }
  }
  attr {
    key: "shape"
    value {
      shape {
      }
    }
  }
  attr {
    key: "shared_name"
    value {
      s: ""
    }
  }
}
node {
  name: "adanet/iteration_0/ensemble_1_layer_dnn/weighted_subnetwork_0/logits/mixture_weight/Assign"
  op: "Assign"
  input: "adanet/iteration_0/ensemble_1_layer_dnn/weighted_subnetwork_0/logits/mixture_weight"
  input: "adanet/iteration_0/ensemble_1_layer_dnn/weighted_subnetwork_0/logits/mixture_weight/Initializer/Const"
  attr {
    key: "T"
    value {
      type: DT_FLOAT
    }
  }
  attr {
    key: "_class"
    value {
      list {
        s: "loc:@adanet/iteration_0/ensemble_1_layer_dnn/weighted_subnetwork_0/logits/mixture_weight"
      }
    }
  }
  attr {
    key: "_output_shapes"
    value {
      list {
        shape {
        }
      }
    }
  }
  attr {
    key: "use_locking"
    value {
      b: true
    }
  }
  attr {
    key: "validate_shape"
    value {
      b: true
    }
  }
}
node {
  name: "adanet/iteration_0/ensemble_1_layer_dnn/weighted_subnetwork_0/logits/mixture_weight/read"
  op: "Identity"
  input: "adanet/iteration_0/ensemble_1_layer_dnn/weighted_subnetwork_0/logits/mixture_weight"
  attr {
    key: "T"
    value {
      type: DT_FLOAT
    }
  }
  attr {
    key: "_class"
    value {
      list {
        s: "loc:@adanet/iteration_0/ensemble_1_layer_dnn/weighted_subnetwork_0/logits/mixture_weight"
      }
    }
  }
  attr {
    key: "_output_shapes"
    value {
      list {
        shape {
        }
      }
    }
  }
}
node {
  name: "adanet/iteration_1/step/Initializer/zeros"
  op: "Const"
  attr {
    key: "_class"
    value {
      list {
        s: "loc:@adanet/iteration_1/step"
      }
    }
  }
  attr {
    key: "_output_shapes"
    value {
      list {
        shape {
        }
      }
    }
  }
  attr {
    key: "dtype"
    value {
      type: DT_INT64
    }
  }
  attr {
    key: "value"
    value {
      tensor {
        dtype: DT_INT64
        tensor_shape {
        }
        int64_val: 0
      }
    }
  }
}
node {
  name: "adanet/iteration_1/step"
  op: "VariableV2"
  attr {
    key: "_class"
    value {
      list {
        s: "loc:@adanet/iteration_1/step"
      }
    }
  }
  attr {
    key: "_output_shapes"
    value {
      list {
        shape {
        }
      }
    }
  }
  attr {
    key: "container"
    value {
      s: ""
    }
  }
  attr {
    key: "dtype"
    value {
      type: DT_INT64
    }
  }
  attr {
    key: "shape"
    value {
      shape {
      }
    }
  }
  attr {
    key: "shared_name"
    value {
      s: ""
    }
  }
}
node {
  name: "adanet/iteration_1/step/Assign"
  op: "Assign"
  input: "adanet/iteration_1/step"
  input: "adanet/iteration_1/step/Initializer/zeros"
  attr {
    key: "T"
    value {
      type: DT_INT64
    }
  }
  attr {
    key: "_class"
    value {
      list {
        s: "loc:@adanet/iteration_1/step"
      }
    }
  }
  attr {
    key: "_output_shapes"
    value {
      list {
        shape {
        }
      }
    }
  }
  attr {
    key: "use_locking"
    value {
      b: true
    }
  }
  attr {
    key: "validate_shape"
    value {
      b: true
    }
  }
}
node {
  name: "adanet/iteration_1/step/read"
  op: "Identity"
  input: "adanet/iteration_1/step"
  attr {
    key: "T"
    value {
      type: DT_INT64
    }
  }
  attr {
    key: "_class"
    value {
      list {
        s: "loc:@adanet/iteration_1/step"
      }
    }
  }
  attr {
    key: "_output_shapes"
    value {
      list {
        shape {
        }
      }
    }
  }
}
node {
  name: "adanet/iteration_1/ensemble_1_layer_dnn/weighted_subnetwork_0/logits/mixture_weight/Initializer/Const"
  op: "Const"
  attr {
    key: "_class"
    value {
      list {
        s: "loc:@adanet/iteration_1/ensemble_1_layer_dnn/weighted_subnetwork_0/logits/mixture_weight"
      }
    }
  }
  attr {
    key: "_output_shapes"
    value {
      list {
        shape {
        }
      }
    }
  }
  attr {
    key: "dtype"
    value {
      type: DT_FLOAT
    }
  }
  attr {
    key: "value"
    value {
      tensor {
        dtype: DT_FLOAT
        tensor_shape {
        }
        float_val: 0.5
      }
    }
  }
}
node {
  name: "adanet/iteration_1/ensemble_1_layer_dnn/weighted_subnetwork_0/logits/mixture_weight"
  op: "VariableV2"
  attr {
    key: "_class"
    value {
      list {
        s: "loc:@adanet/iteration_1/ensemble_1_layer_dnn/weighted_subnetwork_0/logits/mixture_weight"
      }
    }
  }
  attr {
    key: "_output_shapes"
    value {
      list {
        shape {
        }
      }
    }
  }
  attr {
    key: "container"
    value {
      s: ""
    }
  }
  attr {
    key: "dtype"
    value {
      type: DT_FLOAT
    }
  }
  attr {
    key: "shape"
    value {
      shape {
      }
    }
  }
  attr {
    key: "shared_name"
    value {
      s: ""
    }
  }
}
node {
  name: "adanet/iteration_1/ensemble_1_layer_dnn/weighted_subnetwork_0/logits/mixture_weight/Assign"
  op: "Assign"
  input: "adanet/iteration_1/ensemble_1_layer_dnn/weighted_subnetwork_0/logits/mixture_weight"
  input: "adanet/iteration_1/ensemble_1_layer_dnn/weighted_subnetwork_0/logits/mixture_weight/Initializer/Const"
  attr {
    key: "T"
    value {
      type: DT_FLOAT
    }
  }
  attr {
    key: "_class"
    value {
      list {
        s: "loc:@adanet/iteration_1/ensemble_1_layer_dnn/weighted_subnetwork_0/logits/mixture_weight"
      }
    }
  }
  attr {
    key: "_output_shapes"
    value {
      list {
        shape {
        }
      }
    }
  }
  attr {
    key: "use_locking"
    value {
      b: true
    }
  }
  attr {
    key: "validate_shape"
    value {
      b: true
    }
  }
}
node {
  name: "adanet/iteration_1/ensemble_1_layer_dnn/weighted_subnetwork_0/logits/mixture_weight/read"
  op: "Identity"
  input: "adanet/iteration_1/ensemble_1_layer_dnn/weighted_subnetwork_0/logits/mixture_weight"
  attr {
    key: "T"
    value {
      type: DT_FLOAT
    }
  }
  attr {
    key: "_class"
    value {
      list {
        s: "loc:@adanet/iteration_1/ensemble_1_layer_dnn/weighted_subnetwork_0/logits/mixture_weight"
      }
    }
  }
  attr {
    key: "_output_shapes"
    value {
      list {
        shape {
        }
      }
    }
  }
}
node {
  name: "adanet/iteration_1/ensemble_1_layer_dnn/bias/initial_value"
  op: "Const"
  attr {
    key: "_output_shapes"
    value {
      list {
        shape {
          dim {
            size: 1
          }
        }
      }
    }
  }
  attr {
    key: "dtype"
    value {
      type: DT_FLOAT
    }
  }
  attr {
    key: "value"
    value {
      tensor {
        dtype: DT_FLOAT
        tensor_shape {
          dim {
            size: 1
          }
        }
        float_val: 0.0
      }
    }
  }
}
node {
  name: "adanet/iteration_1/ensemble_1_layer_dnn/bias"
  op: "VariableV2"
  attr {
    key: "_output_shapes"
    value {
      list {
        shape {
          dim {
            size: 1
          }
        }
      }
    }
  }
  attr {
    key: "container"
    value {
      s: ""
    }
  }
  attr {
    key: "dtype"
    value {
      type: DT_FLOAT
    }
  }
  attr {
    key: "shape"
    value {
      shape {
        dim {
          size: 1
        }
      }
    }
  }
  attr {
    key: "shared_name"
    value {
      s: ""
    }
  }
}
node {
  name: "adanet/iteration_1/ensemble_1_layer_dnn/bias/Assign"
  op: "Assign"
  input: "adanet/iteration_1/ensemble_1_layer_dnn/bias"
  input: "adanet/iteration_1/ensemble_1_layer_dnn/bias/initial_value"
  attr {
    key: "T"
    value {
      type: DT_FLOAT
    }
  }
  attr {
    key: "_class"
    value {
      list {
        s: "loc:@adanet/iteration_1/ensemble_1_layer_dnn/bias"
      }
    }
  }
  attr {
    key: "_output_shapes"
    value {
      list {
        shape {
          dim {
            size: 1
          }
        }
      }
    }
  }
  attr {
    key: "use_locking"
    value {
      b: true
    }
  }
  attr {
    key: "validate_shape"
    value {
      b: true
    }
  }
}
node {
  name: "adanet/iteration_1/ensemble_1_layer_dnn/bias/read"
  op: "Identity"
  input: "adanet/iteration_1/ensemble_1_layer_dnn/bias"
  attr {
    key: "T"
    value {
      type: DT_FLOAT
    }
  }
  attr {
    key: "_class"
    value {
      list {
        s: "loc:@adanet/iteration_1/ensemble_1_layer_dnn/bias"
      }
    }
  }
  attr {
    key: "_output_shapes"
    value {
      list {
        shape {
          dim {
            size: 1
          }
        }
      }
    }
  }
}
node {
  name: "adanet/iteration_1/ensemble_1_layer_dnn/weighted_subnetwork_1/subnetwork/dense/kernel/Initializer/random_uniform/shape"
  op: "Const"
  attr {
    key: "_class"
    value {
      list {
        s: "loc:@adanet/iteration_1/ensemble_1_layer_dnn/weighted_subnetwork_1/subnetwork/dense/kernel"
      }
    }
  }
  attr {
    key: "_output_shapes"
    value {
      list {
        shape {
          dim {
            size: 2
          }
        }
      }
    }
  }
  attr {
    key: "dtype"
    value {
      type: DT_INT32
    }
  }
  attr {
    key: "value"
    value {
      tensor {
        dtype: DT_INT32
        tensor_shape {
          dim {
            size: 2
          }
        }
        tensor_content: "\r\000\000\000 \000\000\000"
      }
    }
  }
}
node {
  name: "adanet/iteration_1/ensemble_1_layer_dnn/weighted_subnetwork_1/subnetwork/dense/kernel/Initializer/random_uniform/min"
  op: "Const"
  attr {
    key: "_class"
    value {
      list {
        s: "loc:@adanet/iteration_1/ensemble_1_layer_dnn/weighted_subnetwork_1/subnetwork/dense/kernel"
      }
    }
  }
  attr {
    key: "_output_shapes"
    value {
      list {
        shape {
        }
      }
    }
  }
  attr {
    key: "dtype"
    value {
      type: DT_FLOAT
    }
  }
  attr {
    key: "value"
    value {
      tensor {
        dtype: DT_FLOAT
        tensor_shape {
        }
        float_val: -0.3651483654975891
      }
    }
  }
}
node {
  name: "adanet/iteration_1/ensemble_1_layer_dnn/weighted_subnetwork_1/subnetwork/dense/kernel/Initializer/random_uniform/max"
  op: "Const"
  attr {
    key: "_class"
    value {
      list {
        s: "loc:@adanet/iteration_1/ensemble_1_layer_dnn/weighted_subnetwork_1/subnetwork/dense/kernel"
      }
    }
  }
  attr {
    key: "_output_shapes"
    value {
      list {
        shape {
        }
      }
    }
  }
  attr {
    key: "dtype"
    value {
      type: DT_FLOAT
    }
  }
  attr {
    key: "value"
    value {
      tensor {
        dtype: DT_FLOAT
        tensor_shape {
        }
        float_val: 0.3651483654975891
      }
    }
  }
}
node {
  name: "adanet/iteration_1/ensemble_1_layer_dnn/weighted_subnetwork_1/subnetwork/dense/kernel/Initializer/random_uniform/RandomUniform"
  op: "RandomUniform"
  input: "adanet/iteration_1/ensemble_1_layer_dnn/weighted_subnetwork_1/subnetwork/dense/kernel/Initializer/random_uniform/shape"
  attr {
    key: "T"
    value {
      type: DT_INT32
    }
  }
  attr {
    key: "_class"
    value {
      list {
        s: "loc:@adanet/iteration_1/ensemble_1_layer_dnn/weighted_subnetwork_1/subnetwork/dense/kernel"
      }
    }
  }
  attr {
    key: "_output_shapes"
    value {
      list {
        shape {
          dim {
            size: 13
          }
          dim {
            size: 32
          }
        }
      }
    }
  }
  attr {
    key: "dtype"
    value {
      type: DT_FLOAT
    }
  }
  attr {
    key: "seed"
    value {
      i: 87654321
    }
  }
  attr {
    key: "seed2"
    value {
      i: 43
    }
  }
}
node {
  name: "adanet/iteration_1/ensemble_1_layer_dnn/weighted_subnetwork_1/subnetwork/dense/kernel/Initializer/random_uniform/sub"
  op: "Sub"
  input: "adanet/iteration_1/ensemble_1_layer_dnn/weighted_subnetwork_1/subnetwork/dense/kernel/Initializer/random_uniform/max"
  input: "adanet/iteration_1/ensemble_1_layer_dnn/weighted_subnetwork_1/subnetwork/dense/kernel/Initializer/random_uniform/min"
  attr {
    key: "T"
    value {
      type: DT_FLOAT
    }
  }
  attr {
    key: "_class"
    value {
      list {
        s: "loc:@adanet/iteration_1/ensemble_1_layer_dnn/weighted_subnetwork_1/subnetwork/dense/kernel"
      }
    }
  }
  attr {
    key: "_output_shapes"
    value {
      list {
        shape {
        }
      }
    }
  }
}
node {
  name: "adanet/iteration_1/ensemble_1_layer_dnn/weighted_subnetwork_1/subnetwork/dense/kernel/Initializer/random_uniform/mul"
  op: "Mul"
  input: "adanet/iteration_1/ensemble_1_layer_dnn/weighted_subnetwork_1/subnetwork/dense/kernel/Initializer/random_uniform/RandomUniform"
  input: "adanet/iteration_1/ensemble_1_layer_dnn/weighted_subnetwork_1/subnetwork/dense/kernel/Initializer/random_uniform/sub"
  attr {
    key: "T"
    value {
      type: DT_FLOAT
    }
  }
  attr {
    key: "_class"
    value {
      list {
        s: "loc:@adanet/iteration_1/ensemble_1_layer_dnn/weighted_subnetwork_1/subnetwork/dense/kernel"
      }
    }
  }
  attr {
    key: "_output_shapes"
    value {
      list {
        shape {
          dim {
            size: 13
          }
          dim {
            size: 32
          }
        }
      }
    }
  }
}
node {
  name: "adanet/iteration_1/ensemble_1_layer_dnn/weighted_subnetwork_1/subnetwork/dense/kernel/Initializer/random_uniform"
  op: "Add"
  input: "adanet/iteration_1/ensemble_1_layer_dnn/weighted_subnetwork_1/subnetwork/dense/kernel/Initializer/random_uniform/mul"
  input: "adanet/iteration_1/ensemble_1_layer_dnn/weighted_subnetwork_1/subnetwork/dense/kernel/Initializer/random_uniform/min"
  attr {
    key: "T"
    value {
      type: DT_FLOAT
    }
  }
  attr {
    key: "_class"
    value {
      list {
        s: "loc:@adanet/iteration_1/ensemble_1_layer_dnn/weighted_subnetwork_1/subnetwork/dense/kernel"
      }
    }
  }
  attr {
    key: "_output_shapes"
    value {
      list {
        shape {
          dim {
            size: 13
          }
          dim {
            size: 32
          }
        }
      }
    }
  }
}
node {
  name: "adanet/iteration_1/ensemble_1_layer_dnn/weighted_subnetwork_1/subnetwork/dense/kernel"
  op: "VariableV2"
  attr {
    key: "_class"
    value {
      list {
        s: "loc:@adanet/iteration_1/ensemble_1_layer_dnn/weighted_subnetwork_1/subnetwork/dense/kernel"
      }
    }
  }
  attr {
    key: "_output_shapes"
    value {
      list {
        shape {
          dim {
            size: 13
          }
          dim {
            size: 32
          }
        }
      }
    }
  }
  attr {
    key: "container"
    value {
      s: ""
    }
  }
  attr {
    key: "dtype"
    value {
      type: DT_FLOAT
    }
  }
  attr {
    key: "shape"
    value {
      shape {
        dim {
          size: 13
        }
        dim {
          size: 32
        }
      }
    }
  }
  attr {
    key: "shared_name"
    value {
      s: ""
    }
  }
}
node {
  name: "adanet/iteration_1/ensemble_1_layer_dnn/weighted_subnetwork_1/subnetwork/dense/kernel/Assign"
  op: "Assign"
  input: "adanet/iteration_1/ensemble_1_layer_dnn/weighted_subnetwork_1/subnetwork/dense/kernel"
  input: "adanet/iteration_1/ensemble_1_layer_dnn/weighted_subnetwork_1/subnetwork/dense/kernel/Initializer/random_uniform"
  attr {
    key: "T"
    value {
      type: DT_FLOAT
    }
  }
  attr {
    key: "_class"
    value {
      list {
        s: "loc:@adanet/iteration_1/ensemble_1_layer_dnn/weighted_subnetwork_1/subnetwork/dense/kernel"
      }
    }
  }
  attr {
    key: "_output_shapes"
    value {
      list {
        shape {
          dim {
            size: 13
          }
          dim {
            size: 32
          }
        }
      }
    }
  }
  attr {
    key: "use_locking"
    value {
      b: true
    }
  }
  attr {
    key: "validate_shape"
    value {
      b: true
    }
  }
}
node {
  name: "adanet/iteration_1/ensemble_1_layer_dnn/weighted_subnetwork_1/subnetwork/dense/kernel/read"
  op: "Identity"
  input: "adanet/iteration_1/ensemble_1_layer_dnn/weighted_subnetwork_1/subnetwork/dense/kernel"
  attr {
    key: "T"
    value {
      type: DT_FLOAT
    }
  }
  attr {
    key: "_class"
    value {
      list {
        s: "loc:@adanet/iteration_1/ensemble_1_layer_dnn/weighted_subnetwork_1/subnetwork/dense/kernel"
      }
    }
  }
  attr {
    key: "_output_shapes"
    value {
      list {
        shape {
          dim {
            size: 13
          }
          dim {
            size: 32
          }
        }
      }
    }
  }
}
node {
  name: "adanet/iteration_1/ensemble_1_layer_dnn/weighted_subnetwork_1/subnetwork/dense/bias/Initializer/zeros"
  op: "Const"
  attr {
    key: "_class"
    value {
      list {
        s: "loc:@adanet/iteration_1/ensemble_1_layer_dnn/weighted_subnetwork_1/subnetwork/dense/bias"
      }
    }
  }
  attr {
    key: "_output_shapes"
    value {
      list {
        shape {
          dim {
            size: 32
          }
        }
      }
    }
  }
  attr {
    key: "dtype"
    value {
      type: DT_FLOAT
    }
  }
  attr {
    key: "value"
    value {
      tensor {
        dtype: DT_FLOAT
        tensor_shape {
          dim {
            size: 32
          }
        }
        float_val: 0.0
      }
    }
  }
}
node {
  name: "adanet/iteration_1/ensemble_1_layer_dnn/weighted_subnetwork_1/subnetwork/dense/bias"
  op: "VariableV2"
  attr {
    key: "_class"
    value {
      list {
        s: "loc:@adanet/iteration_1/ensemble_1_layer_dnn/weighted_subnetwork_1/subnetwork/dense/bias"
      }
    }
  }
  attr {
    key: "_output_shapes"
    value {
      list {
        shape {
          dim {
            size: 32
          }
        }
      }
    }
  }
  attr {
    key: "container"
    value {
      s: ""
    }
  }
  attr {
    key: "dtype"
    value {
      type: DT_FLOAT
    }
  }
  attr {
    key: "shape"
    value {
      shape {
        dim {
          size: 32
        }
      }
    }
  }
  attr {
    key: "shared_name"
    value {
      s: ""
    }
  }
}
node {
  name: "adanet/iteration_1/ensemble_1_layer_dnn/weighted_subnetwork_1/subnetwork/dense/bias/Assign"
  op: "Assign"
  input: "adanet/iteration_1/ensemble_1_layer_dnn/weighted_subnetwork_1/subnetwork/dense/bias"
  input: "adanet/iteration_1/ensemble_1_layer_dnn/weighted_subnetwork_1/subnetwork/dense/bias/Initializer/zeros"
  attr {
    key: "T"
    value {
      type: DT_FLOAT
    }
  }
  attr {
    key: "_class"
    value {
      list {
        s: "loc:@adanet/iteration_1/ensemble_1_layer_dnn/weighted_subnetwork_1/subnetwork/dense/bias"
      }
    }
  }
  attr {
    key: "_output_shapes"
    value {
      list {
        shape {
          dim {
            size: 32
          }
        }
      }
    }
  }
  attr {
    key: "use_locking"
    value {
      b: true
    }
  }
  attr {
    key: "validate_shape"
    value {
      b: true
    }
  }
}
node {
  name: "adanet/iteration_1/ensemble_1_layer_dnn/weighted_subnetwork_1/subnetwork/dense/bias/read"
  op: "Identity"
  input: "adanet/iteration_1/ensemble_1_layer_dnn/weighted_subnetwork_1/subnetwork/dense/bias"
  attr {
    key: "T"
    value {
      type: DT_FLOAT
    }
  }
  attr {
    key: "_class"
    value {
      list {
        s: "loc:@adanet/iteration_1/ensemble_1_layer_dnn/weighted_subnetwork_1/subnetwork/dense/bias"
      }
    }
  }
  attr {
    key: "_output_shapes"
    value {
      list {
        shape {
          dim {
            size: 32
          }
        }
      }
    }
  }
}
node {
  name: "adanet/iteration_1/ensemble_1_layer_dnn/weighted_subnetwork_1/subnetwork/dense_1/kernel/Initializer/random_uniform/shape"
  op: "Const"
  attr {
    key: "_class"
    value {
      list {
        s: "loc:@adanet/iteration_1/ensemble_1_layer_dnn/weighted_subnetwork_1/subnetwork/dense_1/kernel"
      }
    }
  }
  attr {
    key: "_output_shapes"
    value {
      list {
        shape {
          dim {
            size: 2
          }
        }
      }
    }
  }
  attr {
    key: "dtype"
    value {
      type: DT_INT32
    }
  }
  attr {
    key: "value"
    value {
      tensor {
        dtype: DT_INT32
        tensor_shape {
          dim {
            size: 2
          }
        }
        tensor_content: " \000\000\000\001\000\000\000"
      }
    }
  }
}
node {
  name: "adanet/iteration_1/ensemble_1_layer_dnn/weighted_subnetwork_1/subnetwork/dense_1/kernel/Initializer/random_uniform/min"
  op: "Const"
  attr {
    key: "_class"
    value {
      list {
        s: "loc:@adanet/iteration_1/ensemble_1_layer_dnn/weighted_subnetwork_1/subnetwork/dense_1/kernel"
      }
    }
  }
  attr {
    key: "_output_shapes"
    value {
      list {
        shape {
        }
      }
    }
  }
  attr {
    key: "dtype"
    value {
      type: DT_FLOAT
    }
  }
  attr {
    key: "value"
    value {
      tensor {
        dtype: DT_FLOAT
        tensor_shape {
        }
        float_val: -0.42640143632888794
      }
    }
  }
}
node {
  name: "adanet/iteration_1/ensemble_1_layer_dnn/weighted_subnetwork_1/subnetwork/dense_1/kernel/Initializer/random_uniform/max"
  op: "Const"
  attr {
    key: "_class"
    value {
      list {
        s: "loc:@adanet/iteration_1/ensemble_1_layer_dnn/weighted_subnetwork_1/subnetwork/dense_1/kernel"
      }
    }
  }
  attr {
    key: "_output_shapes"
    value {
      list {
        shape {
        }
      }
    }
  }
  attr {
    key: "dtype"
    value {
      type: DT_FLOAT
    }
  }
  attr {
    key: "value"
    value {
      tensor {
        dtype: DT_FLOAT
        tensor_shape {
        }
        float_val: 0.42640143632888794
      }
    }
  }
}
node {
  name: "adanet/iteration_1/ensemble_1_layer_dnn/weighted_subnetwork_1/subnetwork/dense_1/kernel/Initializer/random_uniform/RandomUniform"
  op: "RandomUniform"
  input: "adanet/iteration_1/ensemble_1_layer_dnn/weighted_subnetwork_1/subnetwork/dense_1/kernel/Initializer/random_uniform/shape"
  attr {
    key: "T"
    value {
      type: DT_INT32
    }
  }
  attr {
    key: "_class"
    value {
      list {
        s: "loc:@adanet/iteration_1/ensemble_1_layer_dnn/weighted_subnetwork_1/subnetwork/dense_1/kernel"
      }
    }
  }
  attr {
    key: "_output_shapes"
    value {
      list {
        shape {
          dim {
            size: 32
          }
          dim {
            size: 1
          }
        }
      }
    }
  }
  attr {
    key: "dtype"
    value {
      type: DT_FLOAT
    }
  }
  attr {
    key: "seed"
    value {
      i: 87654321
    }
  }
  attr {
    key: "seed2"
    value {
      i: 43
    }
  }
}
node {
  name: "adanet/iteration_1/ensemble_1_layer_dnn/weighted_subnetwork_1/subnetwork/dense_1/kernel/Initializer/random_uniform/sub"
  op: "Sub"
  input: "adanet/iteration_1/ensemble_1_layer_dnn/weighted_subnetwork_1/subnetwork/dense_1/kernel/Initializer/random_uniform/max"
  input: "adanet/iteration_1/ensemble_1_layer_dnn/weighted_subnetwork_1/subnetwork/dense_1/kernel/Initializer/random_uniform/min"
  attr {
    key: "T"
    value {
      type: DT_FLOAT
    }
  }
  attr {
    key: "_class"
    value {
      list {
        s: "loc:@adanet/iteration_1/ensemble_1_layer_dnn/weighted_subnetwork_1/subnetwork/dense_1/kernel"
      }
    }
  }
  attr {
    key: "_output_shapes"
    value {
      list {
        shape {
        }
      }
    }
  }
}
node {
  name: "adanet/iteration_1/ensemble_1_layer_dnn/weighted_subnetwork_1/subnetwork/dense_1/kernel/Initializer/random_uniform/mul"
  op: "Mul"
  input: "adanet/iteration_1/ensemble_1_layer_dnn/weighted_subnetwork_1/subnetwork/dense_1/kernel/Initializer/random_uniform/RandomUniform"
  input: "adanet/iteration_1/ensemble_1_layer_dnn/weighted_subnetwork_1/subnetwork/dense_1/kernel/Initializer/random_uniform/sub"
  attr {
    key: "T"
    value {
      type: DT_FLOAT
    }
  }
  attr {
    key: "_class"
    value {
      list {
        s: "loc:@adanet/iteration_1/ensemble_1_layer_dnn/weighted_subnetwork_1/subnetwork/dense_1/kernel"
      }
    }
  }
  attr {
    key: "_output_shapes"
    value {
      list {
        shape {
          dim {
            size: 32
          }
          dim {
            size: 1
          }
        }
      }
    }
  }
}
node {
  name: "adanet/iteration_1/ensemble_1_layer_dnn/weighted_subnetwork_1/subnetwork/dense_1/kernel/Initializer/random_uniform"
  op: "Add"
  input: "adanet/iteration_1/ensemble_1_layer_dnn/weighted_subnetwork_1/subnetwork/dense_1/kernel/Initializer/random_uniform/mul"
  input: "adanet/iteration_1/ensemble_1_layer_dnn/weighted_subnetwork_1/subnetwork/dense_1/kernel/Initializer/random_uniform/min"
  attr {
    key: "T"
    value {
      type: DT_FLOAT
    }
  }
  attr {
    key: "_class"
    value {
      list {
        s: "loc:@adanet/iteration_1/ensemble_1_layer_dnn/weighted_subnetwork_1/subnetwork/dense_1/kernel"
      }
    }
  }
  attr {
    key: "_output_shapes"
    value {
      list {
        shape {
          dim {
            size: 32
          }
          dim {
            size: 1
          }
        }
      }
    }
  }
}
node {
  name: "adanet/iteration_1/ensemble_1_layer_dnn/weighted_subnetwork_1/subnetwork/dense_1/kernel"
  op: "VariableV2"
  attr {
    key: "_class"
    value {
      list {
        s: "loc:@adanet/iteration_1/ensemble_1_layer_dnn/weighted_subnetwork_1/subnetwork/dense_1/kernel"
      }
    }
  }
  attr {
    key: "_output_shapes"
    value {
      list {
        shape {
          dim {
            size: 32
          }
          dim {
            size: 1
          }
        }
      }
    }
  }
  attr {
    key: "container"
    value {
      s: ""
    }
  }
  attr {
    key: "dtype"
    value {
      type: DT_FLOAT
    }
  }
  attr {
    key: "shape"
    value {
      shape {
        dim {
          size: 32
        }
        dim {
          size: 1
        }
      }
    }
  }
  attr {
    key: "shared_name"
    value {
      s: ""
    }
  }
}
node {
  name: "adanet/iteration_1/ensemble_1_layer_dnn/weighted_subnetwork_1/subnetwork/dense_1/kernel/Assign"
  op: "Assign"
  input: "adanet/iteration_1/ensemble_1_layer_dnn/weighted_subnetwork_1/subnetwork/dense_1/kernel"
  input: "adanet/iteration_1/ensemble_1_layer_dnn/weighted_subnetwork_1/subnetwork/dense_1/kernel/Initializer/random_uniform"
  attr {
    key: "T"
    value {
      type: DT_FLOAT
    }
  }
  attr {
    key: "_class"
    value {
      list {
        s: "loc:@adanet/iteration_1/ensemble_1_layer_dnn/weighted_subnetwork_1/subnetwork/dense_1/kernel"
      }
    }
  }
  attr {
    key: "_output_shapes"
    value {
      list {
        shape {
          dim {
            size: 32
          }
          dim {
            size: 1
          }
        }
      }
    }
  }
  attr {
    key: "use_locking"
    value {
      b: true
    }
  }
  attr {
    key: "validate_shape"
    value {
      b: true
    }
  }
}
node {
  name: "adanet/iteration_1/ensemble_1_layer_dnn/weighted_subnetwork_1/subnetwork/dense_1/kernel/read"
  op: "Identity"
  input: "adanet/iteration_1/ensemble_1_layer_dnn/weighted_subnetwork_1/subnetwork/dense_1/kernel"
  attr {
    key: "T"
    value {
      type: DT_FLOAT
    }
  }
  attr {
    key: "_class"
    value {
      list {
        s: "loc:@adanet/iteration_1/ensemble_1_layer_dnn/weighted_subnetwork_1/subnetwork/dense_1/kernel"
      }
    }
  }
  attr {
    key: "_output_shapes"
    value {
      list {
        shape {
          dim {
            size: 32
          }
          dim {
            size: 1
          }
        }
      }
    }
  }
}
node {
  name: "adanet/iteration_1/ensemble_1_layer_dnn/weighted_subnetwork_1/subnetwork/dense_1/bias/Initializer/zeros"
  op: "Const"
  attr {
    key: "_class"
    value {
      list {
        s: "loc:@adanet/iteration_1/ensemble_1_layer_dnn/weighted_subnetwork_1/subnetwork/dense_1/bias"
      }
    }
  }
  attr {
    key: "_output_shapes"
    value {
      list {
        shape {
          dim {
            size: 1
          }
        }
      }
    }
  }
  attr {
    key: "dtype"
    value {
      type: DT_FLOAT
    }
  }
  attr {
    key: "value"
    value {
      tensor {
        dtype: DT_FLOAT
        tensor_shape {
          dim {
            size: 1
          }
        }
        float_val: 0.0
      }
    }
  }
}
node {
  name: "adanet/iteration_1/ensemble_1_layer_dnn/weighted_subnetwork_1/subnetwork/dense_1/bias"
  op: "VariableV2"
  attr {
    key: "_class"
    value {
      list {
        s: "loc:@adanet/iteration_1/ensemble_1_layer_dnn/weighted_subnetwork_1/subnetwork/dense_1/bias"
      }
    }
  }
  attr {
    key: "_output_shapes"
    value {
      list {
        shape {
          dim {
            size: 1
          }
        }
      }
    }
  }
  attr {
    key: "container"
    value {
      s: ""
    }
  }
  attr {
    key: "dtype"
    value {
      type: DT_FLOAT
    }
  }
  attr {
    key: "shape"
    value {
      shape {
        dim {
          size: 1
        }
      }
    }
  }
  attr {
    key: "shared_name"
    value {
      s: ""
    }
  }
}
node {
  name: "adanet/iteration_1/ensemble_1_layer_dnn/weighted_subnetwork_1/subnetwork/dense_1/bias/Assign"
  op: "Assign"
  input: "adanet/iteration_1/ensemble_1_layer_dnn/weighted_subnetwork_1/subnetwork/dense_1/bias"
  input: "adanet/iteration_1/ensemble_1_layer_dnn/weighted_subnetwork_1/subnetwork/dense_1/bias/Initializer/zeros"
  attr {
    key: "T"
    value {
      type: DT_FLOAT
    }
  }
  attr {
    key: "_class"
    value {
      list {
        s: "loc:@adanet/iteration_1/ensemble_1_layer_dnn/weighted_subnetwork_1/subnetwork/dense_1/bias"
      }
    }
  }
  attr {
    key: "_output_shapes"
    value {
      list {
        shape {
          dim {
            size: 1
          }
        }
      }
    }
  }
  attr {
    key: "use_locking"
    value {
      b: true
    }
  }
  attr {
    key: "validate_shape"
    value {
      b: true
    }
  }
}
node {
  name: "adanet/iteration_1/ensemble_1_layer_dnn/weighted_subnetwork_1/subnetwork/dense_1/bias/read"
  op: "Identity"
  input: "adanet/iteration_1/ensemble_1_layer_dnn/weighted_subnetwork_1/subnetwork/dense_1/bias"
  attr {
    key: "T"
    value {
      type: DT_FLOAT
    }
  }
  attr {
    key: "_class"
    value {
      list {
        s: "loc:@adanet/iteration_1/ensemble_1_layer_dnn/weighted_subnetwork_1/subnetwork/dense_1/bias"
      }
    }
  }
  attr {
    key: "_output_shapes"
    value {
      list {
        shape {
          dim {
            size: 1
          }
        }
      }
    }
  }
}
node {
  name: "adanet/iteration_1/ensemble_1_layer_dnn/weighted_subnetwork_1/logits/mixture_weight/Initializer/Const"
  op: "Const"
  attr {
    key: "_class"
    value {
      list {
        s: "loc:@adanet/iteration_1/ensemble_1_layer_dnn/weighted_subnetwork_1/logits/mixture_weight"
      }
    }
  }
  attr {
    key: "_output_shapes"
    value {
      list {
        shape {
        }
      }
    }
  }
  attr {
    key: "dtype"
    value {
      type: DT_FLOAT
    }
  }
  attr {
    key: "value"
    value {
      tensor {
        dtype: DT_FLOAT
        tensor_shape {
        }
        float_val: 0.5
      }
    }
  }
}
node {
  name: "adanet/iteration_1/ensemble_1_layer_dnn/weighted_subnetwork_1/logits/mixture_weight"
  op: "VariableV2"
  attr {
    key: "_class"
    value {
      list {
        s: "loc:@adanet/iteration_1/ensemble_1_layer_dnn/weighted_subnetwork_1/logits/mixture_weight"
      }
    }
  }
  attr {
    key: "_output_shapes"
    value {
      list {
        shape {
        }
      }
    }
  }
  attr {
    key: "container"
    value {
      s: ""
    }
  }
  attr {
    key: "dtype"
    value {
      type: DT_FLOAT
    }
  }
  attr {
    key: "shape"
    value {
      shape {
      }
    }
  }
  attr {
    key: "shared_name"
    value {
      s: ""
    }
  }
}
node {
  name: "adanet/iteration_1/ensemble_1_layer_dnn/weighted_subnetwork_1/logits/mixture_weight/Assign"
  op: "Assign"
  input: "adanet/iteration_1/ensemble_1_layer_dnn/weighted_subnetwork_1/logits/mixture_weight"
  input: "adanet/iteration_1/ensemble_1_layer_dnn/weighted_subnetwork_1/logits/mixture_weight/Initializer/Const"
  attr {
    key: "T"
    value {
      type: DT_FLOAT
    }
  }
  attr {
    key: "_class"
    value {
      list {
        s: "loc:@adanet/iteration_1/ensemble_1_layer_dnn/weighted_subnetwork_1/logits/mixture_weight"
      }
    }
  }
  attr {
    key: "_output_shapes"
    value {
      list {
        shape {
        }
      }
    }
  }
  attr {
    key: "use_locking"
    value {
      b: true
    }
  }
  attr {
    key: "validate_shape"
    value {
      b: true
    }
  }
}
node {
  name: "adanet/iteration_1/ensemble_1_layer_dnn/weighted_subnetwork_1/logits/mixture_weight/read"
  op: "Identity"
  input: "adanet/iteration_1/ensemble_1_layer_dnn/weighted_subnetwork_1/logits/mixture_weight"
  attr {
    key: "T"
    value {
      type: DT_FLOAT
    }
  }
  attr {
    key: "_class"
    value {
      list {
        s: "loc:@adanet/iteration_1/ensemble_1_layer_dnn/weighted_subnetwork_1/logits/mixture_weight"
      }
    }
  }
  attr {
    key: "_output_shapes"
    value {
      list {
        shape {
        }
      }
    }
  }
}
node {
  name: "adanet/iteration_1/ensemble_2_layer_dnn/weighted_subnetwork_0/logits/mixture_weight/Initializer/Const"
  op: "Const"
  attr {
    key: "_class"
    value {
      list {
        s: "loc:@adanet/iteration_1/ensemble_2_layer_dnn/weighted_subnetwork_0/logits/mixture_weight"
      }
    }
  }
  attr {
    key: "_output_shapes"
    value {
      list {
        shape {
        }
      }
    }
  }
  attr {
    key: "dtype"
    value {
      type: DT_FLOAT
    }
  }
  attr {
    key: "value"
    value {
      tensor {
        dtype: DT_FLOAT
        tensor_shape {
        }
        float_val: 0.5
      }
    }
  }
}
node {
  name: "adanet/iteration_1/ensemble_2_layer_dnn/weighted_subnetwork_0/logits/mixture_weight"
  op: "VariableV2"
  attr {
    key: "_class"
    value {
      list {
        s: "loc:@adanet/iteration_1/ensemble_2_layer_dnn/weighted_subnetwork_0/logits/mixture_weight"
      }
    }
  }
  attr {
    key: "_output_shapes"
    value {
      list {
        shape {
        }
      }
    }
  }
  attr {
    key: "container"
    value {
      s: ""
    }
  }
  attr {
    key: "dtype"
    value {
      type: DT_FLOAT
    }
  }
  attr {
    key: "shape"
    value {
      shape {
      }
    }
  }
  attr {
    key: "shared_name"
    value {
      s: ""
    }
  }
}
node {
  name: "adanet/iteration_1/ensemble_2_layer_dnn/weighted_subnetwork_0/logits/mixture_weight/Assign"
  op: "Assign"
  input: "adanet/iteration_1/ensemble_2_layer_dnn/weighted_subnetwork_0/logits/mixture_weight"
  input: "adanet/iteration_1/ensemble_2_layer_dnn/weighted_subnetwork_0/logits/mixture_weight/Initializer/Const"
  attr {
    key: "T"
    value {
      type: DT_FLOAT
    }
  }
  attr {
    key: "_class"
    value {
      list {
        s: "loc:@adanet/iteration_1/ensemble_2_layer_dnn/weighted_subnetwork_0/logits/mixture_weight"
      }
    }
  }
  attr {
    key: "_output_shapes"
    value {
      list {
        shape {
        }
      }
    }
  }
  attr {
    key: "use_locking"
    value {
      b: true
    }
  }
  attr {
    key: "validate_shape"
    value {
      b: true
    }
  }
}
node {
  name: "adanet/iteration_1/ensemble_2_layer_dnn/weighted_subnetwork_0/logits/mixture_weight/read"
  op: "Identity"
  input: "adanet/iteration_1/ensemble_2_layer_dnn/weighted_subnetwork_0/logits/mixture_weight"
  attr {
    key: "T"
    value {
      type: DT_FLOAT
    }
  }
  attr {
    key: "_class"
    value {
      list {
        s: "loc:@adanet/iteration_1/ensemble_2_layer_dnn/weighted_subnetwork_0/logits/mixture_weight"
      }
    }
  }
  attr {
    key: "_output_shapes"
    value {
      list {
        shape {
        }
      }
    }
  }
}
node {
  name: "adanet/iteration_1/ensemble_2_layer_dnn/bias/initial_value"
  op: "Const"
  attr {
    key: "_output_shapes"
    value {
      list {
        shape {
          dim {
            size: 1
          }
        }
      }
    }
  }
  attr {
    key: "dtype"
    value {
      type: DT_FLOAT
    }
  }
  attr {
    key: "value"
    value {
      tensor {
        dtype: DT_FLOAT
        tensor_shape {
          dim {
            size: 1
          }
        }
        float_val: 0.0
      }
    }
  }
}
node {
  name: "adanet/iteration_1/ensemble_2_layer_dnn/bias"
  op: "VariableV2"
  attr {
    key: "_output_shapes"
    value {
      list {
        shape {
          dim {
            size: 1
          }
        }
      }
    }
  }
  attr {
    key: "container"
    value {
      s: ""
    }
  }
  attr {
    key: "dtype"
    value {
      type: DT_FLOAT
    }
  }
  attr {
    key: "shape"
    value {
      shape {
        dim {
          size: 1
        }
      }
    }
  }
  attr {
    key: "shared_name"
    value {
      s: ""
    }
  }
}
node {
  name: "adanet/iteration_1/ensemble_2_layer_dnn/bias/Assign"
  op: "Assign"
  input: "adanet/iteration_1/ensemble_2_layer_dnn/bias"
  input: "adanet/iteration_1/ensemble_2_layer_dnn/bias/initial_value"
  attr {
    key: "T"
    value {
      type: DT_FLOAT
    }
  }
  attr {
    key: "_class"
    value {
      list {
        s: "loc:@adanet/iteration_1/ensemble_2_layer_dnn/bias"
      }
    }
  }
  attr {
    key: "_output_shapes"
    value {
      list {
        shape {
          dim {
            size: 1
          }
        }
      }
    }
  }
  attr {
    key: "use_locking"
    value {
      b: true
    }
  }
  attr {
    key: "validate_shape"
    value {
      b: true
    }
  }
}
node {
  name: "adanet/iteration_1/ensemble_2_layer_dnn/bias/read"
  op: "Identity"
  input: "adanet/iteration_1/ensemble_2_layer_dnn/bias"
  attr {
    key: "T"
    value {
      type: DT_FLOAT
    }
  }
  attr {
    key: "_class"
    value {
      list {
        s: "loc:@adanet/iteration_1/ensemble_2_layer_dnn/bias"
      }
    }
  }
  attr {
    key: "_output_shapes"
    value {
      list {
        shape {
          dim {
            size: 1
          }
        }
      }
    }
  }
}
node {
  name: "adanet/iteration_1/ensemble_2_layer_dnn/weighted_subnetwork_1/subnetwork/ToFloat"
  op: "Cast"
  input: "wrapped_x_2"
  attr {
    key: "DstT"
    value {
      type: DT_FLOAT
    }
  }
  attr {
    key: "SrcT"
    value {
      type: DT_DOUBLE
    }
  }
  attr {
    key: "_output_shapes"
    value {
      list {
        shape {
          dim {
            size: -1
          }
          dim {
            size: 13
          }
        }
      }
    }
  }
}
node {
  name: "adanet/iteration_1/ensemble_2_layer_dnn/weighted_subnetwork_1/subnetwork/dense/kernel/Initializer/random_uniform/shape"
  op: "Const"
  attr {
    key: "_class"
    value {
      list {
        s: "loc:@adanet/iteration_1/ensemble_2_layer_dnn/weighted_subnetwork_1/subnetwork/dense/kernel"
      }
    }
  }
  attr {
    key: "_output_shapes"
    value {
      list {
        shape {
          dim {
            size: 2
          }
        }
      }
    }
  }
  attr {
    key: "dtype"
    value {
      type: DT_INT32
    }
  }
  attr {
    key: "value"
    value {
      tensor {
        dtype: DT_INT32
        tensor_shape {
          dim {
            size: 2
          }
        }
        tensor_content: "\r\000\000\000 \000\000\000"
      }
    }
  }
}
node {
  name: "adanet/iteration_1/ensemble_2_layer_dnn/weighted_subnetwork_1/subnetwork/dense/kernel/Initializer/random_uniform/min"
  op: "Const"
  attr {
    key: "_class"
    value {
      list {
        s: "loc:@adanet/iteration_1/ensemble_2_layer_dnn/weighted_subnetwork_1/subnetwork/dense/kernel"
      }
    }
  }
  attr {
    key: "_output_shapes"
    value {
      list {
        shape {
        }
      }
    }
  }
  attr {
    key: "dtype"
    value {
      type: DT_FLOAT
    }
  }
  attr {
    key: "value"
    value {
      tensor {
        dtype: DT_FLOAT
        tensor_shape {
        }
        float_val: -0.3651483654975891
      }
    }
  }
}
node {
  name: "adanet/iteration_1/ensemble_2_layer_dnn/weighted_subnetwork_1/subnetwork/dense/kernel/Initializer/random_uniform/max"
  op: "Const"
  attr {
    key: "_class"
    value {
      list {
        s: "loc:@adanet/iteration_1/ensemble_2_layer_dnn/weighted_subnetwork_1/subnetwork/dense/kernel"
      }
    }
  }
  attr {
    key: "_output_shapes"
    value {
      list {
        shape {
        }
      }
    }
  }
  attr {
    key: "dtype"
    value {
      type: DT_FLOAT
    }
  }
  attr {
    key: "value"
    value {
      tensor {
        dtype: DT_FLOAT
        tensor_shape {
        }
        float_val: 0.3651483654975891
      }
    }
  }
}
node {
  name: "adanet/iteration_1/ensemble_2_layer_dnn/weighted_subnetwork_1/subnetwork/dense/kernel/Initializer/random_uniform/RandomUniform"
  op: "RandomUniform"
  input: "adanet/iteration_1/ensemble_2_layer_dnn/weighted_subnetwork_1/subnetwork/dense/kernel/Initializer/random_uniform/shape"
  attr {
    key: "T"
    value {
      type: DT_INT32
    }
  }
  attr {
    key: "_class"
    value {
      list {
        s: "loc:@adanet/iteration_1/ensemble_2_layer_dnn/weighted_subnetwork_1/subnetwork/dense/kernel"
      }
    }
  }
  attr {
    key: "_output_shapes"
    value {
      list {
        shape {
          dim {
            size: 13
          }
          dim {
            size: 32
          }
        }
      }
    }
  }
  attr {
    key: "dtype"
    value {
      type: DT_FLOAT
    }
  }
  attr {
    key: "seed"
    value {
      i: 87654321
    }
  }
  attr {
    key: "seed2"
    value {
      i: 43
    }
  }
}
node {
  name: "adanet/iteration_1/ensemble_2_layer_dnn/weighted_subnetwork_1/subnetwork/dense/kernel/Initializer/random_uniform/sub"
  op: "Sub"
  input: "adanet/iteration_1/ensemble_2_layer_dnn/weighted_subnetwork_1/subnetwork/dense/kernel/Initializer/random_uniform/max"
  input: "adanet/iteration_1/ensemble_2_layer_dnn/weighted_subnetwork_1/subnetwork/dense/kernel/Initializer/random_uniform/min"
  attr {
    key: "T"
    value {
      type: DT_FLOAT
    }
  }
  attr {
    key: "_class"
    value {
      list {
        s: "loc:@adanet/iteration_1/ensemble_2_layer_dnn/weighted_subnetwork_1/subnetwork/dense/kernel"
      }
    }
  }
  attr {
    key: "_output_shapes"
    value {
      list {
        shape {
        }
      }
    }
  }
}
node {
  name: "adanet/iteration_1/ensemble_2_layer_dnn/weighted_subnetwork_1/subnetwork/dense/kernel/Initializer/random_uniform/mul"
  op: "Mul"
  input: "adanet/iteration_1/ensemble_2_layer_dnn/weighted_subnetwork_1/subnetwork/dense/kernel/Initializer/random_uniform/RandomUniform"
  input: "adanet/iteration_1/ensemble_2_layer_dnn/weighted_subnetwork_1/subnetwork/dense/kernel/Initializer/random_uniform/sub"
  attr {
    key: "T"
    value {
      type: DT_FLOAT
    }
  }
  attr {
    key: "_class"
    value {
      list {
        s: "loc:@adanet/iteration_1/ensemble_2_layer_dnn/weighted_subnetwork_1/subnetwork/dense/kernel"
      }
    }
  }
  attr {
    key: "_output_shapes"
    value {
      list {
        shape {
          dim {
            size: 13
          }
          dim {
            size: 32
          }
        }
      }
    }
  }
}
node {
  name: "adanet/iteration_1/ensemble_2_layer_dnn/weighted_subnetwork_1/subnetwork/dense/kernel/Initializer/random_uniform"
  op: "Add"
  input: "adanet/iteration_1/ensemble_2_layer_dnn/weighted_subnetwork_1/subnetwork/dense/kernel/Initializer/random_uniform/mul"
  input: "adanet/iteration_1/ensemble_2_layer_dnn/weighted_subnetwork_1/subnetwork/dense/kernel/Initializer/random_uniform/min"
  attr {
    key: "T"
    value {
      type: DT_FLOAT
    }
  }
  attr {
    key: "_class"
    value {
      list {
        s: "loc:@adanet/iteration_1/ensemble_2_layer_dnn/weighted_subnetwork_1/subnetwork/dense/kernel"
      }
    }
  }
  attr {
    key: "_output_shapes"
    value {
      list {
        shape {
          dim {
            size: 13
          }
          dim {
            size: 32
          }
        }
      }
    }
  }
}
node {
  name: "adanet/iteration_1/ensemble_2_layer_dnn/weighted_subnetwork_1/subnetwork/dense/kernel"
  op: "VariableV2"
  attr {
    key: "_class"
    value {
      list {
        s: "loc:@adanet/iteration_1/ensemble_2_layer_dnn/weighted_subnetwork_1/subnetwork/dense/kernel"
      }
    }
  }
  attr {
    key: "_output_shapes"
    value {
      list {
        shape {
          dim {
            size: 13
          }
          dim {
            size: 32
          }
        }
      }
    }
  }
  attr {
    key: "container"
    value {
      s: ""
    }
  }
  attr {
    key: "dtype"
    value {
      type: DT_FLOAT
    }
  }
  attr {
    key: "shape"
    value {
      shape {
        dim {
          size: 13
        }
        dim {
          size: 32
        }
      }
    }
  }
  attr {
    key: "shared_name"
    value {
      s: ""
    }
  }
}
node {
  name: "adanet/iteration_1/ensemble_2_layer_dnn/weighted_subnetwork_1/subnetwork/dense/kernel/Assign"
  op: "Assign"
  input: "adanet/iteration_1/ensemble_2_layer_dnn/weighted_subnetwork_1/subnetwork/dense/kernel"
  input: "adanet/iteration_1/ensemble_2_layer_dnn/weighted_subnetwork_1/subnetwork/dense/kernel/Initializer/random_uniform"
  attr {
    key: "T"
    value {
      type: DT_FLOAT
    }
  }
  attr {
    key: "_class"
    value {
      list {
        s: "loc:@adanet/iteration_1/ensemble_2_layer_dnn/weighted_subnetwork_1/subnetwork/dense/kernel"
      }
    }
  }
  attr {
    key: "_output_shapes"
    value {
      list {
        shape {
          dim {
            size: 13
          }
          dim {
            size: 32
          }
        }
      }
    }
  }
  attr {
    key: "use_locking"
    value {
      b: true
    }
  }
  attr {
    key: "validate_shape"
    value {
      b: true
    }
  }
}
node {
  name: "adanet/iteration_1/ensemble_2_layer_dnn/weighted_subnetwork_1/subnetwork/dense/kernel/read"
  op: "Identity"
  input: "adanet/iteration_1/ensemble_2_layer_dnn/weighted_subnetwork_1/subnetwork/dense/kernel"
  attr {
    key: "T"
    value {
      type: DT_FLOAT
    }
  }
  attr {
    key: "_class"
    value {
      list {
        s: "loc:@adanet/iteration_1/ensemble_2_layer_dnn/weighted_subnetwork_1/subnetwork/dense/kernel"
      }
    }
  }
  attr {
    key: "_output_shapes"
    value {
      list {
        shape {
          dim {
            size: 13
          }
          dim {
            size: 32
          }
        }
      }
    }
  }
}
node {
  name: "adanet/iteration_1/ensemble_2_layer_dnn/weighted_subnetwork_1/subnetwork/dense/bias/Initializer/zeros"
  op: "Const"
  attr {
    key: "_class"
    value {
      list {
        s: "loc:@adanet/iteration_1/ensemble_2_layer_dnn/weighted_subnetwork_1/subnetwork/dense/bias"
      }
    }
  }
  attr {
    key: "_output_shapes"
    value {
      list {
        shape {
          dim {
            size: 32
          }
        }
      }
    }
  }
  attr {
    key: "dtype"
    value {
      type: DT_FLOAT
    }
  }
  attr {
    key: "value"
    value {
      tensor {
        dtype: DT_FLOAT
        tensor_shape {
          dim {
            size: 32
          }
        }
        float_val: 0.0
      }
    }
  }
}
node {
  name: "adanet/iteration_1/ensemble_2_layer_dnn/weighted_subnetwork_1/subnetwork/dense/bias"
  op: "VariableV2"
  attr {
    key: "_class"
    value {
      list {
        s: "loc:@adanet/iteration_1/ensemble_2_layer_dnn/weighted_subnetwork_1/subnetwork/dense/bias"
      }
    }
  }
  attr {
    key: "_output_shapes"
    value {
      list {
        shape {
          dim {
            size: 32
          }
        }
      }
    }
  }
  attr {
    key: "container"
    value {
      s: ""
    }
  }
  attr {
    key: "dtype"
    value {
      type: DT_FLOAT
    }
  }
  attr {
    key: "shape"
    value {
      shape {
        dim {
          size: 32
        }
      }
    }
  }
  attr {
    key: "shared_name"
    value {
      s: ""
    }
  }
}
node {
  name: "adanet/iteration_1/ensemble_2_layer_dnn/weighted_subnetwork_1/subnetwork/dense/bias/Assign"
  op: "Assign"
  input: "adanet/iteration_1/ensemble_2_layer_dnn/weighted_subnetwork_1/subnetwork/dense/bias"
  input: "adanet/iteration_1/ensemble_2_layer_dnn/weighted_subnetwork_1/subnetwork/dense/bias/Initializer/zeros"
  attr {
    key: "T"
    value {
      type: DT_FLOAT
    }
  }
  attr {
    key: "_class"
    value {
      list {
        s: "loc:@adanet/iteration_1/ensemble_2_layer_dnn/weighted_subnetwork_1/subnetwork/dense/bias"
      }
    }
  }
  attr {
    key: "_output_shapes"
    value {
      list {
        shape {
          dim {
            size: 32
          }
        }
      }
    }
  }
  attr {
    key: "use_locking"
    value {
      b: true
    }
  }
  attr {
    key: "validate_shape"
    value {
      b: true
    }
  }
}
node {
  name: "adanet/iteration_1/ensemble_2_layer_dnn/weighted_subnetwork_1/subnetwork/dense/bias/read"
  op: "Identity"
  input: "adanet/iteration_1/ensemble_2_layer_dnn/weighted_subnetwork_1/subnetwork/dense/bias"
  attr {
    key: "T"
    value {
      type: DT_FLOAT
    }
  }
  attr {
    key: "_class"
    value {
      list {
        s: "loc:@adanet/iteration_1/ensemble_2_layer_dnn/weighted_subnetwork_1/subnetwork/dense/bias"
      }
    }
  }
  attr {
    key: "_output_shapes"
    value {
      list {
        shape {
          dim {
            size: 32
          }
        }
      }
    }
  }
}
node {
  name: "adanet/iteration_1/ensemble_2_layer_dnn/weighted_subnetwork_1/subnetwork/dense/MatMul"
  op: "MatMul"
  input: "adanet/iteration_1/ensemble_2_layer_dnn/weighted_subnetwork_1/subnetwork/ToFloat"
  input: "adanet/iteration_1/ensemble_2_layer_dnn/weighted_subnetwork_1/subnetwork/dense/kernel/read"
  attr {
    key: "T"
    value {
      type: DT_FLOAT
    }
  }
  attr {
    key: "_output_shapes"
    value {
      list {
        shape {
          dim {
            size: -1
          }
          dim {
            size: 32
          }
        }
      }
    }
  }
  attr {
    key: "transpose_a"
    value {
      b: false
    }
  }
  attr {
    key: "transpose_b"
    value {
      b: false
    }
  }
}
node {
  name: "adanet/iteration_1/ensemble_2_layer_dnn/weighted_subnetwork_1/subnetwork/dense/BiasAdd"
  op: "BiasAdd"
  input: "adanet/iteration_1/ensemble_2_layer_dnn/weighted_subnetwork_1/subnetwork/dense/MatMul"
  input: "adanet/iteration_1/ensemble_2_layer_dnn/weighted_subnetwork_1/subnetwork/dense/bias/read"
  attr {
    key: "T"
    value {
      type: DT_FLOAT
    }
  }
  attr {
    key: "_output_shapes"
    value {
      list {
        shape {
          dim {
            size: -1
          }
          dim {
            size: 32
          }
        }
      }
    }
  }
  attr {
    key: "data_format"
    value {
      s: "NHWC"
    }
  }
}
node {
  name: "adanet/iteration_1/ensemble_2_layer_dnn/weighted_subnetwork_1/subnetwork/dense/Relu"
  op: "Relu"
  input: "adanet/iteration_1/ensemble_2_layer_dnn/weighted_subnetwork_1/subnetwork/dense/BiasAdd"
  attr {
    key: "T"
    value {
      type: DT_FLOAT
    }
  }
  attr {
    key: "_output_shapes"
    value {
      list {
        shape {
          dim {
            size: -1
          }
          dim {
            size: 32
          }
        }
      }
    }
  }
}
node {
  name: "adanet/iteration_1/ensemble_2_layer_dnn/weighted_subnetwork_1/subnetwork/dense_1/kernel/Initializer/random_uniform/shape"
  op: "Const"
  attr {
    key: "_class"
    value {
      list {
        s: "loc:@adanet/iteration_1/ensemble_2_layer_dnn/weighted_subnetwork_1/subnetwork/dense_1/kernel"
      }
    }
  }
  attr {
    key: "_output_shapes"
    value {
      list {
        shape {
          dim {
            size: 2
          }
        }
      }
    }
  }
  attr {
    key: "dtype"
    value {
      type: DT_INT32
    }
  }
  attr {
    key: "value"
    value {
      tensor {
        dtype: DT_INT32
        tensor_shape {
          dim {
            size: 2
          }
        }
        tensor_content: " \000\000\000 \000\000\000"
      }
    }
  }
}
node {
  name: "adanet/iteration_1/ensemble_2_layer_dnn/weighted_subnetwork_1/subnetwork/dense_1/kernel/Initializer/random_uniform/min"
  op: "Const"
  attr {
    key: "_class"
    value {
      list {
        s: "loc:@adanet/iteration_1/ensemble_2_layer_dnn/weighted_subnetwork_1/subnetwork/dense_1/kernel"
      }
    }
  }
  attr {
    key: "_output_shapes"
    value {
      list {
        shape {
        }
      }
    }
  }
  attr {
    key: "dtype"
    value {
      type: DT_FLOAT
    }
  }
  attr {
    key: "value"
    value {
      tensor {
        dtype: DT_FLOAT
        tensor_shape {
        }
        float_val: -0.3061862289905548
      }
    }
  }
}
node {
  name: "adanet/iteration_1/ensemble_2_layer_dnn/weighted_subnetwork_1/subnetwork/dense_1/kernel/Initializer/random_uniform/max"
  op: "Const"
  attr {
    key: "_class"
    value {
      list {
        s: "loc:@adanet/iteration_1/ensemble_2_layer_dnn/weighted_subnetwork_1/subnetwork/dense_1/kernel"
      }
    }
  }
  attr {
    key: "_output_shapes"
    value {
      list {
        shape {
        }
      }
    }
  }
  attr {
    key: "dtype"
    value {
      type: DT_FLOAT
    }
  }
  attr {
    key: "value"
    value {
      tensor {
        dtype: DT_FLOAT
        tensor_shape {
        }
        float_val: 0.3061862289905548
      }
    }
  }
}
node {
  name: "adanet/iteration_1/ensemble_2_layer_dnn/weighted_subnetwork_1/subnetwork/dense_1/kernel/Initializer/random_uniform/RandomUniform"
  op: "RandomUniform"
  input: "adanet/iteration_1/ensemble_2_layer_dnn/weighted_subnetwork_1/subnetwork/dense_1/kernel/Initializer/random_uniform/shape"
  attr {
    key: "T"
    value {
      type: DT_INT32
    }
  }
  attr {
    key: "_class"
    value {
      list {
        s: "loc:@adanet/iteration_1/ensemble_2_layer_dnn/weighted_subnetwork_1/subnetwork/dense_1/kernel"
      }
    }
  }
  attr {
    key: "_output_shapes"
    value {
      list {
        shape {
          dim {
            size: 32
          }
          dim {
            size: 32
          }
        }
      }
    }
  }
  attr {
    key: "dtype"
    value {
      type: DT_FLOAT
    }
  }
  attr {
    key: "seed"
    value {
      i: 87654321
    }
  }
  attr {
    key: "seed2"
    value {
      i: 43
    }
  }
}
node {
  name: "adanet/iteration_1/ensemble_2_layer_dnn/weighted_subnetwork_1/subnetwork/dense_1/kernel/Initializer/random_uniform/sub"
  op: "Sub"
  input: "adanet/iteration_1/ensemble_2_layer_dnn/weighted_subnetwork_1/subnetwork/dense_1/kernel/Initializer/random_uniform/max"
  input: "adanet/iteration_1/ensemble_2_layer_dnn/weighted_subnetwork_1/subnetwork/dense_1/kernel/Initializer/random_uniform/min"
  attr {
    key: "T"
    value {
      type: DT_FLOAT
    }
  }
  attr {
    key: "_class"
    value {
      list {
        s: "loc:@adanet/iteration_1/ensemble_2_layer_dnn/weighted_subnetwork_1/subnetwork/dense_1/kernel"
      }
    }
  }
  attr {
    key: "_output_shapes"
    value {
      list {
        shape {
        }
      }
    }
  }
}
node {
  name: "adanet/iteration_1/ensemble_2_layer_dnn/weighted_subnetwork_1/subnetwork/dense_1/kernel/Initializer/random_uniform/mul"
  op: "Mul"
  input: "adanet/iteration_1/ensemble_2_layer_dnn/weighted_subnetwork_1/subnetwork/dense_1/kernel/Initializer/random_uniform/RandomUniform"
  input: "adanet/iteration_1/ensemble_2_layer_dnn/weighted_subnetwork_1/subnetwork/dense_1/kernel/Initializer/random_uniform/sub"
  attr {
    key: "T"
    value {
      type: DT_FLOAT
    }
  }
  attr {
    key: "_class"
    value {
      list {
        s: "loc:@adanet/iteration_1/ensemble_2_layer_dnn/weighted_subnetwork_1/subnetwork/dense_1/kernel"
      }
    }
  }
  attr {
    key: "_output_shapes"
    value {
      list {
        shape {
          dim {
            size: 32
          }
          dim {
            size: 32
          }
        }
      }
    }
  }
}
node {
  name: "adanet/iteration_1/ensemble_2_layer_dnn/weighted_subnetwork_1/subnetwork/dense_1/kernel/Initializer/random_uniform"
  op: "Add"
  input: "adanet/iteration_1/ensemble_2_layer_dnn/weighted_subnetwork_1/subnetwork/dense_1/kernel/Initializer/random_uniform/mul"
  input: "adanet/iteration_1/ensemble_2_layer_dnn/weighted_subnetwork_1/subnetwork/dense_1/kernel/Initializer/random_uniform/min"
  attr {
    key: "T"
    value {
      type: DT_FLOAT
    }
  }
  attr {
    key: "_class"
    value {
      list {
        s: "loc:@adanet/iteration_1/ensemble_2_layer_dnn/weighted_subnetwork_1/subnetwork/dense_1/kernel"
      }
    }
  }
  attr {
    key: "_output_shapes"
    value {
      list {
        shape {
          dim {
            size: 32
          }
          dim {
            size: 32
          }
        }
      }
    }
  }
}
node {
  name: "adanet/iteration_1/ensemble_2_layer_dnn/weighted_subnetwork_1/subnetwork/dense_1/kernel"
  op: "VariableV2"
  attr {
    key: "_class"
    value {
      list {
        s: "loc:@adanet/iteration_1/ensemble_2_layer_dnn/weighted_subnetwork_1/subnetwork/dense_1/kernel"
      }
    }
  }
  attr {
    key: "_output_shapes"
    value {
      list {
        shape {
          dim {
            size: 32
          }
          dim {
            size: 32
          }
        }
      }
    }
  }
  attr {
    key: "container"
    value {
      s: ""
    }
  }
  attr {
    key: "dtype"
    value {
      type: DT_FLOAT
    }
  }
  attr {
    key: "shape"
    value {
      shape {
        dim {
          size: 32
        }
        dim {
          size: 32
        }
      }
    }
  }
  attr {
    key: "shared_name"
    value {
      s: ""
    }
  }
}
node {
  name: "adanet/iteration_1/ensemble_2_layer_dnn/weighted_subnetwork_1/subnetwork/dense_1/kernel/Assign"
  op: "Assign"
  input: "adanet/iteration_1/ensemble_2_layer_dnn/weighted_subnetwork_1/subnetwork/dense_1/kernel"
  input: "adanet/iteration_1/ensemble_2_layer_dnn/weighted_subnetwork_1/subnetwork/dense_1/kernel/Initializer/random_uniform"
  attr {
    key: "T"
    value {
      type: DT_FLOAT
    }
  }
  attr {
    key: "_class"
    value {
      list {
        s: "loc:@adanet/iteration_1/ensemble_2_layer_dnn/weighted_subnetwork_1/subnetwork/dense_1/kernel"
      }
    }
  }
  attr {
    key: "_output_shapes"
    value {
      list {
        shape {
          dim {
            size: 32
          }
          dim {
            size: 32
          }
        }
      }
    }
  }
  attr {
    key: "use_locking"
    value {
      b: true
    }
  }
  attr {
    key: "validate_shape"
    value {
      b: true
    }
  }
}
node {
  name: "adanet/iteration_1/ensemble_2_layer_dnn/weighted_subnetwork_1/subnetwork/dense_1/kernel/read"
  op: "Identity"
  input: "adanet/iteration_1/ensemble_2_layer_dnn/weighted_subnetwork_1/subnetwork/dense_1/kernel"
  attr {
    key: "T"
    value {
      type: DT_FLOAT
    }
  }
  attr {
    key: "_class"
    value {
      list {
        s: "loc:@adanet/iteration_1/ensemble_2_layer_dnn/weighted_subnetwork_1/subnetwork/dense_1/kernel"
      }
    }
  }
  attr {
    key: "_output_shapes"
    value {
      list {
        shape {
          dim {
            size: 32
          }
          dim {
            size: 32
          }
        }
      }
    }
  }
}
node {
  name: "adanet/iteration_1/ensemble_2_layer_dnn/weighted_subnetwork_1/subnetwork/dense_1/bias/Initializer/zeros"
  op: "Const"
  attr {
    key: "_class"
    value {
      list {
        s: "loc:@adanet/iteration_1/ensemble_2_layer_dnn/weighted_subnetwork_1/subnetwork/dense_1/bias"
      }
    }
  }
  attr {
    key: "_output_shapes"
    value {
      list {
        shape {
          dim {
            size: 32
          }
        }
      }
    }
  }
  attr {
    key: "dtype"
    value {
      type: DT_FLOAT
    }
  }
  attr {
    key: "value"
    value {
      tensor {
        dtype: DT_FLOAT
        tensor_shape {
          dim {
            size: 32
          }
        }
        float_val: 0.0
      }
    }
  }
}
node {
  name: "adanet/iteration_1/ensemble_2_layer_dnn/weighted_subnetwork_1/subnetwork/dense_1/bias"
  op: "VariableV2"
  attr {
    key: "_class"
    value {
      list {
        s: "loc:@adanet/iteration_1/ensemble_2_layer_dnn/weighted_subnetwork_1/subnetwork/dense_1/bias"
      }
    }
  }
  attr {
    key: "_output_shapes"
    value {
      list {
        shape {
          dim {
            size: 32
          }
        }
      }
    }
  }
  attr {
    key: "container"
    value {
      s: ""
    }
  }
  attr {
    key: "dtype"
    value {
      type: DT_FLOAT
    }
  }
  attr {
    key: "shape"
    value {
      shape {
        dim {
          size: 32
        }
      }
    }
  }
  attr {
    key: "shared_name"
    value {
      s: ""
    }
  }
}
node {
  name: "adanet/iteration_1/ensemble_2_layer_dnn/weighted_subnetwork_1/subnetwork/dense_1/bias/Assign"
  op: "Assign"
  input: "adanet/iteration_1/ensemble_2_layer_dnn/weighted_subnetwork_1/subnetwork/dense_1/bias"
  input: "adanet/iteration_1/ensemble_2_layer_dnn/weighted_subnetwork_1/subnetwork/dense_1/bias/Initializer/zeros"
  attr {
    key: "T"
    value {
      type: DT_FLOAT
    }
  }
  attr {
    key: "_class"
    value {
      list {
        s: "loc:@adanet/iteration_1/ensemble_2_layer_dnn/weighted_subnetwork_1/subnetwork/dense_1/bias"
      }
    }
  }
  attr {
    key: "_output_shapes"
    value {
      list {
        shape {
          dim {
            size: 32
          }
        }
      }
    }
  }
  attr {
    key: "use_locking"
    value {
      b: true
    }
  }
  attr {
    key: "validate_shape"
    value {
      b: true
    }
  }
}
node {
  name: "adanet/iteration_1/ensemble_2_layer_dnn/weighted_subnetwork_1/subnetwork/dense_1/bias/read"
  op: "Identity"
  input: "adanet/iteration_1/ensemble_2_layer_dnn/weighted_subnetwork_1/subnetwork/dense_1/bias"
  attr {
    key: "T"
    value {
      type: DT_FLOAT
    }
  }
  attr {
    key: "_class"
    value {
      list {
        s: "loc:@adanet/iteration_1/ensemble_2_layer_dnn/weighted_subnetwork_1/subnetwork/dense_1/bias"
      }
    }
  }
  attr {
    key: "_output_shapes"
    value {
      list {
        shape {
          dim {
            size: 32
          }
        }
      }
    }
  }
}
node {
  name: "adanet/iteration_1/ensemble_2_layer_dnn/weighted_subnetwork_1/subnetwork/dense_1/MatMul"
  op: "MatMul"
  input: "adanet/iteration_1/ensemble_2_layer_dnn/weighted_subnetwork_1/subnetwork/dense/Relu"
  input: "adanet/iteration_1/ensemble_2_layer_dnn/weighted_subnetwork_1/subnetwork/dense_1/kernel/read"
  attr {
    key: "T"
    value {
      type: DT_FLOAT
    }
  }
  attr {
    key: "_output_shapes"
    value {
      list {
        shape {
          dim {
            size: -1
          }
          dim {
            size: 32
          }
        }
      }
    }
  }
  attr {
    key: "transpose_a"
    value {
      b: false
    }
  }
  attr {
    key: "transpose_b"
    value {
      b: false
    }
  }
}
node {
  name: "adanet/iteration_1/ensemble_2_layer_dnn/weighted_subnetwork_1/subnetwork/dense_1/BiasAdd"
  op: "BiasAdd"
  input: "adanet/iteration_1/ensemble_2_layer_dnn/weighted_subnetwork_1/subnetwork/dense_1/MatMul"
  input: "adanet/iteration_1/ensemble_2_layer_dnn/weighted_subnetwork_1/subnetwork/dense_1/bias/read"
  attr {
    key: "T"
    value {
      type: DT_FLOAT
    }
  }
  attr {
    key: "_output_shapes"
    value {
      list {
        shape {
          dim {
            size: -1
          }
          dim {
            size: 32
          }
        }
      }
    }
  }
  attr {
    key: "data_format"
    value {
      s: "NHWC"
    }
  }
}
node {
  name: "adanet/iteration_1/ensemble_2_layer_dnn/weighted_subnetwork_1/subnetwork/dense_1/Relu"
  op: "Relu"
  input: "adanet/iteration_1/ensemble_2_layer_dnn/weighted_subnetwork_1/subnetwork/dense_1/BiasAdd"
  attr {
    key: "T"
    value {
      type: DT_FLOAT
    }
  }
  attr {
    key: "_output_shapes"
    value {
      list {
        shape {
          dim {
            size: -1
          }
          dim {
            size: 32
          }
        }
      }
    }
  }
}
node {
  name: "adanet/iteration_1/ensemble_2_layer_dnn/weighted_subnetwork_1/subnetwork/dense_2/kernel/Initializer/random_uniform/shape"
  op: "Const"
  attr {
    key: "_class"
    value {
      list {
        s: "loc:@adanet/iteration_1/ensemble_2_layer_dnn/weighted_subnetwork_1/subnetwork/dense_2/kernel"
      }
    }
  }
  attr {
    key: "_output_shapes"
    value {
      list {
        shape {
          dim {
            size: 2
          }
        }
      }
    }
  }
  attr {
    key: "dtype"
    value {
      type: DT_INT32
    }
  }
  attr {
    key: "value"
    value {
      tensor {
        dtype: DT_INT32
        tensor_shape {
          dim {
            size: 2
          }
        }
        tensor_content: " \000\000\000\001\000\000\000"
      }
    }
  }
}
node {
  name: "adanet/iteration_1/ensemble_2_layer_dnn/weighted_subnetwork_1/subnetwork/dense_2/kernel/Initializer/random_uniform/min"
  op: "Const"
  attr {
    key: "_class"
    value {
      list {
        s: "loc:@adanet/iteration_1/ensemble_2_layer_dnn/weighted_subnetwork_1/subnetwork/dense_2/kernel"
      }
    }
  }
  attr {
    key: "_output_shapes"
    value {
      list {
        shape {
        }
      }
    }
  }
  attr {
    key: "dtype"
    value {
      type: DT_FLOAT
    }
  }
  attr {
    key: "value"
    value {
      tensor {
        dtype: DT_FLOAT
        tensor_shape {
        }
        float_val: -0.42640143632888794
      }
    }
  }
}
node {
  name: "adanet/iteration_1/ensemble_2_layer_dnn/weighted_subnetwork_1/subnetwork/dense_2/kernel/Initializer/random_uniform/max"
  op: "Const"
  attr {
    key: "_class"
    value {
      list {
        s: "loc:@adanet/iteration_1/ensemble_2_layer_dnn/weighted_subnetwork_1/subnetwork/dense_2/kernel"
      }
    }
  }
  attr {
    key: "_output_shapes"
    value {
      list {
        shape {
        }
      }
    }
  }
  attr {
    key: "dtype"
    value {
      type: DT_FLOAT
    }
  }
  attr {
    key: "value"
    value {
      tensor {
        dtype: DT_FLOAT
        tensor_shape {
        }
        float_val: 0.42640143632888794
      }
    }
  }
}
node {
  name: "adanet/iteration_1/ensemble_2_layer_dnn/weighted_subnetwork_1/subnetwork/dense_2/kernel/Initializer/random_uniform/RandomUniform"
  op: "RandomUniform"
  input: "adanet/iteration_1/ensemble_2_layer_dnn/weighted_subnetwork_1/subnetwork/dense_2/kernel/Initializer/random_uniform/shape"
  attr {
    key: "T"
    value {
      type: DT_INT32
    }
  }
  attr {
    key: "_class"
    value {
      list {
        s: "loc:@adanet/iteration_1/ensemble_2_layer_dnn/weighted_subnetwork_1/subnetwork/dense_2/kernel"
      }
    }
  }
  attr {
    key: "_output_shapes"
    value {
      list {
        shape {
          dim {
            size: 32
          }
          dim {
            size: 1
          }
        }
      }
    }
  }
  attr {
    key: "dtype"
    value {
      type: DT_FLOAT
    }
  }
  attr {
    key: "seed"
    value {
      i: 87654321
    }
  }
  attr {
    key: "seed2"
    value {
      i: 43
    }
  }
}
node {
  name: "adanet/iteration_1/ensemble_2_layer_dnn/weighted_subnetwork_1/subnetwork/dense_2/kernel/Initializer/random_uniform/sub"
  op: "Sub"
  input: "adanet/iteration_1/ensemble_2_layer_dnn/weighted_subnetwork_1/subnetwork/dense_2/kernel/Initializer/random_uniform/max"
  input: "adanet/iteration_1/ensemble_2_layer_dnn/weighted_subnetwork_1/subnetwork/dense_2/kernel/Initializer/random_uniform/min"
  attr {
    key: "T"
    value {
      type: DT_FLOAT
    }
  }
  attr {
    key: "_class"
    value {
      list {
        s: "loc:@adanet/iteration_1/ensemble_2_layer_dnn/weighted_subnetwork_1/subnetwork/dense_2/kernel"
      }
    }
  }
  attr {
    key: "_output_shapes"
    value {
      list {
        shape {
        }
      }
    }
  }
}
node {
  name: "adanet/iteration_1/ensemble_2_layer_dnn/weighted_subnetwork_1/subnetwork/dense_2/kernel/Initializer/random_uniform/mul"
  op: "Mul"
  input: "adanet/iteration_1/ensemble_2_layer_dnn/weighted_subnetwork_1/subnetwork/dense_2/kernel/Initializer/random_uniform/RandomUniform"
  input: "adanet/iteration_1/ensemble_2_layer_dnn/weighted_subnetwork_1/subnetwork/dense_2/kernel/Initializer/random_uniform/sub"
  attr {
    key: "T"
    value {
      type: DT_FLOAT
    }
  }
  attr {
    key: "_class"
    value {
      list {
        s: "loc:@adanet/iteration_1/ensemble_2_layer_dnn/weighted_subnetwork_1/subnetwork/dense_2/kernel"
      }
    }
  }
  attr {
    key: "_output_shapes"
    value {
      list {
        shape {
          dim {
            size: 32
          }
          dim {
            size: 1
          }
        }
      }
    }
  }
}
node {
  name: "adanet/iteration_1/ensemble_2_layer_dnn/weighted_subnetwork_1/subnetwork/dense_2/kernel/Initializer/random_uniform"
  op: "Add"
  input: "adanet/iteration_1/ensemble_2_layer_dnn/weighted_subnetwork_1/subnetwork/dense_2/kernel/Initializer/random_uniform/mul"
  input: "adanet/iteration_1/ensemble_2_layer_dnn/weighted_subnetwork_1/subnetwork/dense_2/kernel/Initializer/random_uniform/min"
  attr {
    key: "T"
    value {
      type: DT_FLOAT
    }
  }
  attr {
    key: "_class"
    value {
      list {
        s: "loc:@adanet/iteration_1/ensemble_2_layer_dnn/weighted_subnetwork_1/subnetwork/dense_2/kernel"
      }
    }
  }
  attr {
    key: "_output_shapes"
    value {
      list {
        shape {
          dim {
            size: 32
          }
          dim {
            size: 1
          }
        }
      }
    }
  }
}
node {
  name: "adanet/iteration_1/ensemble_2_layer_dnn/weighted_subnetwork_1/subnetwork/dense_2/kernel"
  op: "VariableV2"
  attr {
    key: "_class"
    value {
      list {
        s: "loc:@adanet/iteration_1/ensemble_2_layer_dnn/weighted_subnetwork_1/subnetwork/dense_2/kernel"
      }
    }
  }
  attr {
    key: "_output_shapes"
    value {
      list {
        shape {
          dim {
            size: 32
          }
          dim {
            size: 1
          }
        }
      }
    }
  }
  attr {
    key: "container"
    value {
      s: ""
    }
  }
  attr {
    key: "dtype"
    value {
      type: DT_FLOAT
    }
  }
  attr {
    key: "shape"
    value {
      shape {
        dim {
          size: 32
        }
        dim {
          size: 1
        }
      }
    }
  }
  attr {
    key: "shared_name"
    value {
      s: ""
    }
  }
}
node {
  name: "adanet/iteration_1/ensemble_2_layer_dnn/weighted_subnetwork_1/subnetwork/dense_2/kernel/Assign"
  op: "Assign"
  input: "adanet/iteration_1/ensemble_2_layer_dnn/weighted_subnetwork_1/subnetwork/dense_2/kernel"
  input: "adanet/iteration_1/ensemble_2_layer_dnn/weighted_subnetwork_1/subnetwork/dense_2/kernel/Initializer/random_uniform"
  attr {
    key: "T"
    value {
      type: DT_FLOAT
    }
  }
  attr {
    key: "_class"
    value {
      list {
        s: "loc:@adanet/iteration_1/ensemble_2_layer_dnn/weighted_subnetwork_1/subnetwork/dense_2/kernel"
      }
    }
  }
  attr {
    key: "_output_shapes"
    value {
      list {
        shape {
          dim {
            size: 32
          }
          dim {
            size: 1
          }
        }
      }
    }
  }
  attr {
    key: "use_locking"
    value {
      b: true
    }
  }
  attr {
    key: "validate_shape"
    value {
      b: true
    }
  }
}
node {
  name: "adanet/iteration_1/ensemble_2_layer_dnn/weighted_subnetwork_1/subnetwork/dense_2/kernel/read"
  op: "Identity"
  input: "adanet/iteration_1/ensemble_2_layer_dnn/weighted_subnetwork_1/subnetwork/dense_2/kernel"
  attr {
    key: "T"
    value {
      type: DT_FLOAT
    }
  }
  attr {
    key: "_class"
    value {
      list {
        s: "loc:@adanet/iteration_1/ensemble_2_layer_dnn/weighted_subnetwork_1/subnetwork/dense_2/kernel"
      }
    }
  }
  attr {
    key: "_output_shapes"
    value {
      list {
        shape {
          dim {
            size: 32
          }
          dim {
            size: 1
          }
        }
      }
    }
  }
}
node {
  name: "adanet/iteration_1/ensemble_2_layer_dnn/weighted_subnetwork_1/subnetwork/dense_2/bias/Initializer/zeros"
  op: "Const"
  attr {
    key: "_class"
    value {
      list {
        s: "loc:@adanet/iteration_1/ensemble_2_layer_dnn/weighted_subnetwork_1/subnetwork/dense_2/bias"
      }
    }
  }
  attr {
    key: "_output_shapes"
    value {
      list {
        shape {
          dim {
            size: 1
          }
        }
      }
    }
  }
  attr {
    key: "dtype"
    value {
      type: DT_FLOAT
    }
  }
  attr {
    key: "value"
    value {
      tensor {
        dtype: DT_FLOAT
        tensor_shape {
          dim {
            size: 1
          }
        }
        float_val: 0.0
      }
    }
  }
}
node {
  name: "adanet/iteration_1/ensemble_2_layer_dnn/weighted_subnetwork_1/subnetwork/dense_2/bias"
  op: "VariableV2"
  attr {
    key: "_class"
    value {
      list {
        s: "loc:@adanet/iteration_1/ensemble_2_layer_dnn/weighted_subnetwork_1/subnetwork/dense_2/bias"
      }
    }
  }
  attr {
    key: "_output_shapes"
    value {
      list {
        shape {
          dim {
            size: 1
          }
        }
      }
    }
  }
  attr {
    key: "container"
    value {
      s: ""
    }
  }
  attr {
    key: "dtype"
    value {
      type: DT_FLOAT
    }
  }
  attr {
    key: "shape"
    value {
      shape {
        dim {
          size: 1
        }
      }
    }
  }
  attr {
    key: "shared_name"
    value {
      s: ""
    }
  }
}
node {
  name: "adanet/iteration_1/ensemble_2_layer_dnn/weighted_subnetwork_1/subnetwork/dense_2/bias/Assign"
  op: "Assign"
  input: "adanet/iteration_1/ensemble_2_layer_dnn/weighted_subnetwork_1/subnetwork/dense_2/bias"
  input: "adanet/iteration_1/ensemble_2_layer_dnn/weighted_subnetwork_1/subnetwork/dense_2/bias/Initializer/zeros"
  attr {
    key: "T"
    value {
      type: DT_FLOAT
    }
  }
  attr {
    key: "_class"
    value {
      list {
        s: "loc:@adanet/iteration_1/ensemble_2_layer_dnn/weighted_subnetwork_1/subnetwork/dense_2/bias"
      }
    }
  }
  attr {
    key: "_output_shapes"
    value {
      list {
        shape {
          dim {
            size: 1
          }
        }
      }
    }
  }
  attr {
    key: "use_locking"
    value {
      b: true
    }
  }
  attr {
    key: "validate_shape"
    value {
      b: true
    }
  }
}
node {
  name: "adanet/iteration_1/ensemble_2_layer_dnn/weighted_subnetwork_1/subnetwork/dense_2/bias/read"
  op: "Identity"
  input: "adanet/iteration_1/ensemble_2_layer_dnn/weighted_subnetwork_1/subnetwork/dense_2/bias"
  attr {
    key: "T"
    value {
      type: DT_FLOAT
    }
  }
  attr {
    key: "_class"
    value {
      list {
        s: "loc:@adanet/iteration_1/ensemble_2_layer_dnn/weighted_subnetwork_1/subnetwork/dense_2/bias"
      }
    }
  }
  attr {
    key: "_output_shapes"
    value {
      list {
        shape {
          dim {
            size: 1
          }
        }
      }
    }
  }
}
node {
  name: "adanet/iteration_1/ensemble_2_layer_dnn/weighted_subnetwork_1/subnetwork/dense_2/MatMul"
  op: "MatMul"
  input: "adanet/iteration_1/ensemble_2_layer_dnn/weighted_subnetwork_1/subnetwork/dense_1/Relu"
  input: "adanet/iteration_1/ensemble_2_layer_dnn/weighted_subnetwork_1/subnetwork/dense_2/kernel/read"
  attr {
    key: "T"
    value {
      type: DT_FLOAT
    }
  }
  attr {
    key: "_output_shapes"
    value {
      list {
        shape {
          dim {
            size: -1
          }
          dim {
            size: 1
          }
        }
      }
    }
  }
  attr {
    key: "transpose_a"
    value {
      b: false
    }
  }
  attr {
    key: "transpose_b"
    value {
      b: false
    }
  }
}
node {
  name: "adanet/iteration_1/ensemble_2_layer_dnn/weighted_subnetwork_1/subnetwork/dense_2/BiasAdd"
  op: "BiasAdd"
  input: "adanet/iteration_1/ensemble_2_layer_dnn/weighted_subnetwork_1/subnetwork/dense_2/MatMul"
  input: "adanet/iteration_1/ensemble_2_layer_dnn/weighted_subnetwork_1/subnetwork/dense_2/bias/read"
  attr {
    key: "T"
    value {
      type: DT_FLOAT
    }
  }
  attr {
    key: "_output_shapes"
    value {
      list {
        shape {
          dim {
            size: -1
          }
          dim {
            size: 1
          }
        }
      }
    }
  }
  attr {
    key: "data_format"
    value {
      s: "NHWC"
    }
  }
}
node {
  name: "adanet/iteration_1/ensemble_2_layer_dnn/weighted_subnetwork_1/subnetwork/Const"
  op: "Const"
  attr {
    key: "_output_shapes"
    value {
      list {
        shape {
        }
      }
    }
  }
  attr {
    key: "dtype"
    value {
      type: DT_INT32
    }
  }
  attr {
    key: "value"
    value {
      tensor {
        dtype: DT_INT32
        tensor_shape {
        }
        int_val: 2
      }
    }
  }
}
node {
  name: "adanet/iteration_1/ensemble_2_layer_dnn/weighted_subnetwork_1/subnetwork/ToFloat_1/x"
  op: "Const"
  attr {
    key: "_output_shapes"
    value {
      list {
        shape {
        }
      }
    }
  }
  attr {
    key: "dtype"
    value {
      type: DT_INT32
    }
  }
  attr {
    key: "value"
    value {
      tensor {
        dtype: DT_INT32
        tensor_shape {
        }
        int_val: 2
      }
    }
  }
}
node {
  name: "adanet/iteration_1/ensemble_2_layer_dnn/weighted_subnetwork_1/subnetwork/ToFloat_1"
  op: "Cast"
  input: "adanet/iteration_1/ensemble_2_layer_dnn/weighted_subnetwork_1/subnetwork/ToFloat_1/x"
  attr {
    key: "DstT"
    value {
      type: DT_FLOAT
    }
  }
  attr {
    key: "SrcT"
    value {
      type: DT_INT32
    }
  }
  attr {
    key: "_output_shapes"
    value {
      list {
        shape {
        }
      }
    }
  }
}
node {
  name: "adanet/iteration_1/ensemble_2_layer_dnn/weighted_subnetwork_1/subnetwork/Sqrt"
  op: "Sqrt"
  input: "adanet/iteration_1/ensemble_2_layer_dnn/weighted_subnetwork_1/subnetwork/ToFloat_1"
  attr {
    key: "T"
    value {
      type: DT_FLOAT
    }
  }
  attr {
    key: "_output_shapes"
    value {
      list {
        shape {
        }
      }
    }
  }
}
node {
  name: "adanet/iteration_1/ensemble_2_layer_dnn/weighted_subnetwork_1/name"
  op: "Const"
  attr {
    key: "_output_shapes"
    value {
      list {
        shape {
        }
      }
    }
  }
  attr {
    key: "dtype"
    value {
      type: DT_STRING
    }
  }
  attr {
    key: "value"
    value {
      tensor {
        dtype: DT_STRING
        tensor_shape {
        }
        string_val: "2_layer_dnn"
      }
    }
  }
}
node {
  name: "adanet/iteration_1/ensemble_2_layer_dnn/weighted_subnetwork_1/logits/mixture_weight/Initializer/Const"
  op: "Const"
  attr {
    key: "_class"
    value {
      list {
        s: "loc:@adanet/iteration_1/ensemble_2_layer_dnn/weighted_subnetwork_1/logits/mixture_weight"
      }
    }
  }
  attr {
    key: "_output_shapes"
    value {
      list {
        shape {
        }
      }
    }
  }
  attr {
    key: "dtype"
    value {
      type: DT_FLOAT
    }
  }
  attr {
    key: "value"
    value {
      tensor {
        dtype: DT_FLOAT
        tensor_shape {
        }
        float_val: 0.5
      }
    }
  }
}
node {
  name: "adanet/iteration_1/ensemble_2_layer_dnn/weighted_subnetwork_1/logits/mixture_weight"
  op: "VariableV2"
  attr {
    key: "_class"
    value {
      list {
        s: "loc:@adanet/iteration_1/ensemble_2_layer_dnn/weighted_subnetwork_1/logits/mixture_weight"
      }
    }
  }
  attr {
    key: "_output_shapes"
    value {
      list {
        shape {
        }
      }
    }
  }
  attr {
    key: "container"
    value {
      s: ""
    }
  }
  attr {
    key: "dtype"
    value {
      type: DT_FLOAT
    }
  }
  attr {
    key: "shape"
    value {
      shape {
      }
    }
  }
  attr {
    key: "shared_name"
    value {
      s: ""
    }
  }
}
node {
  name: "adanet/iteration_1/ensemble_2_layer_dnn/weighted_subnetwork_1/logits/mixture_weight/Assign"
  op: "Assign"
  input: "adanet/iteration_1/ensemble_2_layer_dnn/weighted_subnetwork_1/logits/mixture_weight"
  input: "adanet/iteration_1/ensemble_2_layer_dnn/weighted_subnetwork_1/logits/mixture_weight/Initializer/Const"
  attr {
    key: "T"
    value {
      type: DT_FLOAT
    }
  }
  attr {
    key: "_class"
    value {
      list {
        s: "loc:@adanet/iteration_1/ensemble_2_layer_dnn/weighted_subnetwork_1/logits/mixture_weight"
      }
    }
  }
  attr {
    key: "_output_shapes"
    value {
      list {
        shape {
        }
      }
    }
  }
  attr {
    key: "use_locking"
    value {
      b: true
    }
  }
  attr {
    key: "validate_shape"
    value {
      b: true
    }
  }
}
node {
  name: "adanet/iteration_1/ensemble_2_layer_dnn/weighted_subnetwork_1/logits/mixture_weight/read"
  op: "Identity"
  input: "adanet/iteration_1/ensemble_2_layer_dnn/weighted_subnetwork_1/logits/mixture_weight"
  attr {
    key: "T"
    value {
      type: DT_FLOAT
    }
  }
  attr {
    key: "_class"
    value {
      list {
        s: "loc:@adanet/iteration_1/ensemble_2_layer_dnn/weighted_subnetwork_1/logits/mixture_weight"
      }
    }
  }
  attr {
    key: "_output_shapes"
    value {
      list {
        shape {
        }
      }
    }
  }
}
node {
  name: "adanet/iteration_2/step/Initializer/zeros"
  op: "Const"
  attr {
    key: "_class"
    value {
      list {
        s: "loc:@adanet/iteration_2/step"
      }
    }
  }
  attr {
    key: "_output_shapes"
    value {
      list {
        shape {
        }
      }
    }
  }
  attr {
    key: "dtype"
    value {
      type: DT_INT64
    }
  }
  attr {
    key: "value"
    value {
      tensor {
        dtype: DT_INT64
        tensor_shape {
        }
        int64_val: 0
      }
    }
  }
}
node {
  name: "adanet/iteration_2/step"
  op: "VariableV2"
  attr {
    key: "_class"
    value {
      list {
        s: "loc:@adanet/iteration_2/step"
      }
    }
  }
  attr {
    key: "_output_shapes"
    value {
      list {
        shape {
        }
      }
    }
  }
  attr {
    key: "container"
    value {
      s: ""
    }
  }
  attr {
    key: "dtype"
    value {
      type: DT_INT64
    }
  }
  attr {
    key: "shape"
    value {
      shape {
      }
    }
  }
  attr {
    key: "shared_name"
    value {
      s: ""
    }
  }
}
node {
  name: "adanet/iteration_2/step/Assign"
  op: "Assign"
  input: "adanet/iteration_2/step"
  input: "adanet/iteration_2/step/Initializer/zeros"
  attr {
    key: "T"
    value {
      type: DT_INT64
    }
  }
  attr {
    key: "_class"
    value {
      list {
        s: "loc:@adanet/iteration_2/step"
      }
    }
  }
  attr {
    key: "_output_shapes"
    value {
      list {
        shape {
        }
      }
    }
  }
  attr {
    key: "use_locking"
    value {
      b: true
    }
  }
  attr {
    key: "validate_shape"
    value {
      b: true
    }
  }
}
node {
  name: "adanet/iteration_2/step/read"
  op: "Identity"
  input: "adanet/iteration_2/step"
  attr {
    key: "T"
    value {
      type: DT_INT64
    }
  }
  attr {
    key: "_class"
    value {
      list {
        s: "loc:@adanet/iteration_2/step"
      }
    }
  }
  attr {
    key: "_output_shapes"
    value {
      list {
        shape {
        }
      }
    }
  }
}
node {
  name: "adanet/iteration_2/ensemble_2_layer_dnn/weighted_subnetwork_0/logits/mixture_weight/Initializer/Const"
  op: "Const"
  attr {
    key: "_class"
    value {
      list {
        s: "loc:@adanet/iteration_2/ensemble_2_layer_dnn/weighted_subnetwork_0/logits/mixture_weight"
      }
    }
  }
  attr {
    key: "_output_shapes"
    value {
      list {
        shape {
        }
      }
    }
  }
  attr {
    key: "dtype"
    value {
      type: DT_FLOAT
    }
  }
  attr {
    key: "value"
    value {
      tensor {
        dtype: DT_FLOAT
        tensor_shape {
        }
        float_val: 0.3333333432674408
      }
    }
  }
}
node {
  name: "adanet/iteration_2/ensemble_2_layer_dnn/weighted_subnetwork_0/logits/mixture_weight"
  op: "VariableV2"
  attr {
    key: "_class"
    value {
      list {
        s: "loc:@adanet/iteration_2/ensemble_2_layer_dnn/weighted_subnetwork_0/logits/mixture_weight"
      }
    }
  }
  attr {
    key: "_output_shapes"
    value {
      list {
        shape {
        }
      }
    }
  }
  attr {
    key: "container"
    value {
      s: ""
    }
  }
  attr {
    key: "dtype"
    value {
      type: DT_FLOAT
    }
  }
  attr {
    key: "shape"
    value {
      shape {
      }
    }
  }
  attr {
    key: "shared_name"
    value {
      s: ""
    }
  }
}
node {
  name: "adanet/iteration_2/ensemble_2_layer_dnn/weighted_subnetwork_0/logits/mixture_weight/Assign"
  op: "Assign"
  input: "adanet/iteration_2/ensemble_2_layer_dnn/weighted_subnetwork_0/logits/mixture_weight"
  input: "adanet/iteration_2/ensemble_2_layer_dnn/weighted_subnetwork_0/logits/mixture_weight/Initializer/Const"
  attr {
    key: "T"
    value {
      type: DT_FLOAT
    }
  }
  attr {
    key: "_class"
    value {
      list {
        s: "loc:@adanet/iteration_2/ensemble_2_layer_dnn/weighted_subnetwork_0/logits/mixture_weight"
      }
    }
  }
  attr {
    key: "_output_shapes"
    value {
      list {
        shape {
        }
      }
    }
  }
  attr {
    key: "use_locking"
    value {
      b: true
    }
  }
  attr {
    key: "validate_shape"
    value {
      b: true
    }
  }
}
node {
  name: "adanet/iteration_2/ensemble_2_layer_dnn/weighted_subnetwork_0/logits/mixture_weight/read"
  op: "Identity"
  input: "adanet/iteration_2/ensemble_2_layer_dnn/weighted_subnetwork_0/logits/mixture_weight"
  attr {
    key: "T"
    value {
      type: DT_FLOAT
    }
  }
  attr {
    key: "_class"
    value {
      list {
        s: "loc:@adanet/iteration_2/ensemble_2_layer_dnn/weighted_subnetwork_0/logits/mixture_weight"
      }
    }
  }
  attr {
    key: "_output_shapes"
    value {
      list {
        shape {
        }
      }
    }
  }
}
node {
  name: "adanet/iteration_2/ensemble_2_layer_dnn/weighted_subnetwork_1/logits/mixture_weight/Initializer/Const"
  op: "Const"
  attr {
    key: "_class"
    value {
      list {
        s: "loc:@adanet/iteration_2/ensemble_2_layer_dnn/weighted_subnetwork_1/logits/mixture_weight"
      }
    }
  }
  attr {
    key: "_output_shapes"
    value {
      list {
        shape {
        }
      }
    }
  }
  attr {
    key: "dtype"
    value {
      type: DT_FLOAT
    }
  }
  attr {
    key: "value"
    value {
      tensor {
        dtype: DT_FLOAT
        tensor_shape {
        }
        float_val: 0.3333333432674408
      }
    }
  }
}
node {
  name: "adanet/iteration_2/ensemble_2_layer_dnn/weighted_subnetwork_1/logits/mixture_weight"
  op: "VariableV2"
  attr {
    key: "_class"
    value {
      list {
        s: "loc:@adanet/iteration_2/ensemble_2_layer_dnn/weighted_subnetwork_1/logits/mixture_weight"
      }
    }
  }
  attr {
    key: "_output_shapes"
    value {
      list {
        shape {
        }
      }
    }
  }
  attr {
    key: "container"
    value {
      s: ""
    }
  }
  attr {
    key: "dtype"
    value {
      type: DT_FLOAT
    }
  }
  attr {
    key: "shape"
    value {
      shape {
      }
    }
  }
  attr {
    key: "shared_name"
    value {
      s: ""
    }
  }
}
node {
  name: "adanet/iteration_2/ensemble_2_layer_dnn/weighted_subnetwork_1/logits/mixture_weight/Assign"
  op: "Assign"
  input: "adanet/iteration_2/ensemble_2_layer_dnn/weighted_subnetwork_1/logits/mixture_weight"
  input: "adanet/iteration_2/ensemble_2_layer_dnn/weighted_subnetwork_1/logits/mixture_weight/Initializer/Const"
  attr {
    key: "T"
    value {
      type: DT_FLOAT
    }
  }
  attr {
    key: "_class"
    value {
      list {
        s: "loc:@adanet/iteration_2/ensemble_2_layer_dnn/weighted_subnetwork_1/logits/mixture_weight"
      }
    }
  }
  attr {
    key: "_output_shapes"
    value {
      list {
        shape {
        }
      }
    }
  }
  attr {
    key: "use_locking"
    value {
      b: true
    }
  }
  attr {
    key: "validate_shape"
    value {
      b: true
    }
  }
}
node {
  name: "adanet/iteration_2/ensemble_2_layer_dnn/weighted_subnetwork_1/logits/mixture_weight/read"
  op: "Identity"
  input: "adanet/iteration_2/ensemble_2_layer_dnn/weighted_subnetwork_1/logits/mixture_weight"
  attr {
    key: "T"
    value {
      type: DT_FLOAT
    }
  }
  attr {
    key: "_class"
    value {
      list {
        s: "loc:@adanet/iteration_2/ensemble_2_layer_dnn/weighted_subnetwork_1/logits/mixture_weight"
      }
    }
  }
  attr {
    key: "_output_shapes"
    value {
      list {
        shape {
        }
      }
    }
  }
}
node {
  name: "adanet/iteration_2/ensemble_2_layer_dnn/bias/initial_value"
  op: "Const"
  attr {
    key: "_output_shapes"
    value {
      list {
        shape {
          dim {
            size: 1
          }
        }
      }
    }
  }
  attr {
    key: "dtype"
    value {
      type: DT_FLOAT
    }
  }
  attr {
    key: "value"
    value {
      tensor {
        dtype: DT_FLOAT
        tensor_shape {
          dim {
            size: 1
          }
        }
        float_val: 0.0
      }
    }
  }
}
node {
  name: "adanet/iteration_2/ensemble_2_layer_dnn/bias"
  op: "VariableV2"
  attr {
    key: "_output_shapes"
    value {
      list {
        shape {
          dim {
            size: 1
          }
        }
      }
    }
  }
  attr {
    key: "container"
    value {
      s: ""
    }
  }
  attr {
    key: "dtype"
    value {
      type: DT_FLOAT
    }
  }
  attr {
    key: "shape"
    value {
      shape {
        dim {
          size: 1
        }
      }
    }
  }
  attr {
    key: "shared_name"
    value {
      s: ""
    }
  }
}
node {
  name: "adanet/iteration_2/ensemble_2_layer_dnn/bias/Assign"
  op: "Assign"
  input: "adanet/iteration_2/ensemble_2_layer_dnn/bias"
  input: "adanet/iteration_2/ensemble_2_layer_dnn/bias/initial_value"
  attr {
    key: "T"
    value {
      type: DT_FLOAT
    }
  }
  attr {
    key: "_class"
    value {
      list {
        s: "loc:@adanet/iteration_2/ensemble_2_layer_dnn/bias"
      }
    }
  }
  attr {
    key: "_output_shapes"
    value {
      list {
        shape {
          dim {
            size: 1
          }
        }
      }
    }
  }
  attr {
    key: "use_locking"
    value {
      b: true
    }
  }
  attr {
    key: "validate_shape"
    value {
      b: true
    }
  }
}
node {
  name: "adanet/iteration_2/ensemble_2_layer_dnn/bias/read"
  op: "Identity"
  input: "adanet/iteration_2/ensemble_2_layer_dnn/bias"
  attr {
    key: "T"
    value {
      type: DT_FLOAT
    }
  }
  attr {
    key: "_class"
    value {
      list {
        s: "loc:@adanet/iteration_2/ensemble_2_layer_dnn/bias"
      }
    }
  }
  attr {
    key: "_output_shapes"
    value {
      list {
        shape {
          dim {
            size: 1
          }
        }
      }
    }
  }
}
node {
  name: "adanet/iteration_2/ensemble_2_layer_dnn/weighted_subnetwork_2/subnetwork/ToFloat"
  op: "Cast"
  input: "wrapped_x_3"
  attr {
    key: "DstT"
    value {
      type: DT_FLOAT
    }
  }
  attr {
    key: "SrcT"
    value {
      type: DT_DOUBLE
    }
  }
  attr {
    key: "_output_shapes"
    value {
      list {
        shape {
          dim {
            size: -1
          }
          dim {
            size: 13
          }
        }
      }
    }
  }
}
node {
  name: "adanet/iteration_2/ensemble_2_layer_dnn/weighted_subnetwork_2/subnetwork/dense/kernel/Initializer/random_uniform/shape"
  op: "Const"
  attr {
    key: "_class"
    value {
      list {
        s: "loc:@adanet/iteration_2/ensemble_2_layer_dnn/weighted_subnetwork_2/subnetwork/dense/kernel"
      }
    }
  }
  attr {
    key: "_output_shapes"
    value {
      list {
        shape {
          dim {
            size: 2
          }
        }
      }
    }
  }
  attr {
    key: "dtype"
    value {
      type: DT_INT32
    }
  }
  attr {
    key: "value"
    value {
      tensor {
        dtype: DT_INT32
        tensor_shape {
          dim {
            size: 2
          }
        }
        tensor_content: "\r\000\000\000 \000\000\000"
      }
    }
  }
}
node {
  name: "adanet/iteration_2/ensemble_2_layer_dnn/weighted_subnetwork_2/subnetwork/dense/kernel/Initializer/random_uniform/min"
  op: "Const"
  attr {
    key: "_class"
    value {
      list {
        s: "loc:@adanet/iteration_2/ensemble_2_layer_dnn/weighted_subnetwork_2/subnetwork/dense/kernel"
      }
    }
  }
  attr {
    key: "_output_shapes"
    value {
      list {
        shape {
        }
      }
    }
  }
  attr {
    key: "dtype"
    value {
      type: DT_FLOAT
    }
  }
  attr {
    key: "value"
    value {
      tensor {
        dtype: DT_FLOAT
        tensor_shape {
        }
        float_val: -0.3651483654975891
      }
    }
  }
}
node {
  name: "adanet/iteration_2/ensemble_2_layer_dnn/weighted_subnetwork_2/subnetwork/dense/kernel/Initializer/random_uniform/max"
  op: "Const"
  attr {
    key: "_class"
    value {
      list {
        s: "loc:@adanet/iteration_2/ensemble_2_layer_dnn/weighted_subnetwork_2/subnetwork/dense/kernel"
      }
    }
  }
  attr {
    key: "_output_shapes"
    value {
      list {
        shape {
        }
      }
    }
  }
  attr {
    key: "dtype"
    value {
      type: DT_FLOAT
    }
  }
  attr {
    key: "value"
    value {
      tensor {
        dtype: DT_FLOAT
        tensor_shape {
        }
        float_val: 0.3651483654975891
      }
    }
  }
}
node {
  name: "adanet/iteration_2/ensemble_2_layer_dnn/weighted_subnetwork_2/subnetwork/dense/kernel/Initializer/random_uniform/RandomUniform"
  op: "RandomUniform"
  input: "adanet/iteration_2/ensemble_2_layer_dnn/weighted_subnetwork_2/subnetwork/dense/kernel/Initializer/random_uniform/shape"
  attr {
    key: "T"
    value {
      type: DT_INT32
    }
  }
  attr {
    key: "_class"
    value {
      list {
        s: "loc:@adanet/iteration_2/ensemble_2_layer_dnn/weighted_subnetwork_2/subnetwork/dense/kernel"
      }
    }
  }
  attr {
    key: "_output_shapes"
    value {
      list {
        shape {
          dim {
            size: 13
          }
          dim {
            size: 32
          }
        }
      }
    }
  }
  attr {
    key: "dtype"
    value {
      type: DT_FLOAT
    }
  }
  attr {
    key: "seed"
    value {
      i: 87654321
    }
  }
  attr {
    key: "seed2"
    value {
      i: 44
    }
  }
}
node {
  name: "adanet/iteration_2/ensemble_2_layer_dnn/weighted_subnetwork_2/subnetwork/dense/kernel/Initializer/random_uniform/sub"
  op: "Sub"
  input: "adanet/iteration_2/ensemble_2_layer_dnn/weighted_subnetwork_2/subnetwork/dense/kernel/Initializer/random_uniform/max"
  input: "adanet/iteration_2/ensemble_2_layer_dnn/weighted_subnetwork_2/subnetwork/dense/kernel/Initializer/random_uniform/min"
  attr {
    key: "T"
    value {
      type: DT_FLOAT
    }
  }
  attr {
    key: "_class"
    value {
      list {
        s: "loc:@adanet/iteration_2/ensemble_2_layer_dnn/weighted_subnetwork_2/subnetwork/dense/kernel"
      }
    }
  }
  attr {
    key: "_output_shapes"
    value {
      list {
        shape {
        }
      }
    }
  }
}
node {
  name: "adanet/iteration_2/ensemble_2_layer_dnn/weighted_subnetwork_2/subnetwork/dense/kernel/Initializer/random_uniform/mul"
  op: "Mul"
  input: "adanet/iteration_2/ensemble_2_layer_dnn/weighted_subnetwork_2/subnetwork/dense/kernel/Initializer/random_uniform/RandomUniform"
  input: "adanet/iteration_2/ensemble_2_layer_dnn/weighted_subnetwork_2/subnetwork/dense/kernel/Initializer/random_uniform/sub"
  attr {
    key: "T"
    value {
      type: DT_FLOAT
    }
  }
  attr {
    key: "_class"
    value {
      list {
        s: "loc:@adanet/iteration_2/ensemble_2_layer_dnn/weighted_subnetwork_2/subnetwork/dense/kernel"
      }
    }
  }
  attr {
    key: "_output_shapes"
    value {
      list {
        shape {
          dim {
            size: 13
          }
          dim {
            size: 32
          }
        }
      }
    }
  }
}
node {
  name: "adanet/iteration_2/ensemble_2_layer_dnn/weighted_subnetwork_2/subnetwork/dense/kernel/Initializer/random_uniform"
  op: "Add"
  input: "adanet/iteration_2/ensemble_2_layer_dnn/weighted_subnetwork_2/subnetwork/dense/kernel/Initializer/random_uniform/mul"
  input: "adanet/iteration_2/ensemble_2_layer_dnn/weighted_subnetwork_2/subnetwork/dense/kernel/Initializer/random_uniform/min"
  attr {
    key: "T"
    value {
      type: DT_FLOAT
    }
  }
  attr {
    key: "_class"
    value {
      list {
        s: "loc:@adanet/iteration_2/ensemble_2_layer_dnn/weighted_subnetwork_2/subnetwork/dense/kernel"
      }
    }
  }
  attr {
    key: "_output_shapes"
    value {
      list {
        shape {
          dim {
            size: 13
          }
          dim {
            size: 32
          }
        }
      }
    }
  }
}
node {
  name: "adanet/iteration_2/ensemble_2_layer_dnn/weighted_subnetwork_2/subnetwork/dense/kernel"
  op: "VariableV2"
  attr {
    key: "_class"
    value {
      list {
        s: "loc:@adanet/iteration_2/ensemble_2_layer_dnn/weighted_subnetwork_2/subnetwork/dense/kernel"
      }
    }
  }
  attr {
    key: "_output_shapes"
    value {
      list {
        shape {
          dim {
            size: 13
          }
          dim {
            size: 32
          }
        }
      }
    }
  }
  attr {
    key: "container"
    value {
      s: ""
    }
  }
  attr {
    key: "dtype"
    value {
      type: DT_FLOAT
    }
  }
  attr {
    key: "shape"
    value {
      shape {
        dim {
          size: 13
        }
        dim {
          size: 32
        }
      }
    }
  }
  attr {
    key: "shared_name"
    value {
      s: ""
    }
  }
}
node {
  name: "adanet/iteration_2/ensemble_2_layer_dnn/weighted_subnetwork_2/subnetwork/dense/kernel/Assign"
  op: "Assign"
  input: "adanet/iteration_2/ensemble_2_layer_dnn/weighted_subnetwork_2/subnetwork/dense/kernel"
  input: "adanet/iteration_2/ensemble_2_layer_dnn/weighted_subnetwork_2/subnetwork/dense/kernel/Initializer/random_uniform"
  attr {
    key: "T"
    value {
      type: DT_FLOAT
    }
  }
  attr {
    key: "_class"
    value {
      list {
        s: "loc:@adanet/iteration_2/ensemble_2_layer_dnn/weighted_subnetwork_2/subnetwork/dense/kernel"
      }
    }
  }
  attr {
    key: "_output_shapes"
    value {
      list {
        shape {
          dim {
            size: 13
          }
          dim {
            size: 32
          }
        }
      }
    }
  }
  attr {
    key: "use_locking"
    value {
      b: true
    }
  }
  attr {
    key: "validate_shape"
    value {
      b: true
    }
  }
}
node {
  name: "adanet/iteration_2/ensemble_2_layer_dnn/weighted_subnetwork_2/subnetwork/dense/kernel/read"
  op: "Identity"
  input: "adanet/iteration_2/ensemble_2_layer_dnn/weighted_subnetwork_2/subnetwork/dense/kernel"
  attr {
    key: "T"
    value {
      type: DT_FLOAT
    }
  }
  attr {
    key: "_class"
    value {
      list {
        s: "loc:@adanet/iteration_2/ensemble_2_layer_dnn/weighted_subnetwork_2/subnetwork/dense/kernel"
      }
    }
  }
  attr {
    key: "_output_shapes"
    value {
      list {
        shape {
          dim {
            size: 13
          }
          dim {
            size: 32
          }
        }
      }
    }
  }
}
node {
  name: "adanet/iteration_2/ensemble_2_layer_dnn/weighted_subnetwork_2/subnetwork/dense/bias/Initializer/zeros"
  op: "Const"
  attr {
    key: "_class"
    value {
      list {
        s: "loc:@adanet/iteration_2/ensemble_2_layer_dnn/weighted_subnetwork_2/subnetwork/dense/bias"
      }
    }
  }
  attr {
    key: "_output_shapes"
    value {
      list {
        shape {
          dim {
            size: 32
          }
        }
      }
    }
  }
  attr {
    key: "dtype"
    value {
      type: DT_FLOAT
    }
  }
  attr {
    key: "value"
    value {
      tensor {
        dtype: DT_FLOAT
        tensor_shape {
          dim {
            size: 32
          }
        }
        float_val: 0.0
      }
    }
  }
}
node {
…
  }
  attr {
    key: "_output_shapes"
    value {
      list {
        shape {
        }
      }
    }
  }
  attr {
    key: "use_locking"
    value {
      b: true
    }
  }
  attr {
    key: "validate_shape"
    value {
      b: true
    }
  }
}
node {
  name: "save_1/Assign_90"
  op: "Assign"
  input: "adanet/iteration_4/ensemble_3_layer_dnn/weighted_subnetwork_4/logits/mixture_weight"
  input: "save_1/RestoreV2:90"
  attr {
    key: "T"
    value {
      type: DT_FLOAT
    }
  }
  attr {
    key: "_class"
    value {
      list {
        s: "loc:@adanet/iteration_4/ensemble_3_layer_dnn/weighted_subnetwork_4/logits/mixture_weight"
      }
    }
  }
  attr {
    key: "_output_shapes"
    value {
      list {
        shape {
        }
      }
    }
  }
  attr {
    key: "use_locking"
    value {
      b: true
    }
  }
  attr {
    key: "validate_shape"
    value {
      b: true
    }
  }
}
node {
  name: "save_1/Assign_91"
  op: "Assign"
  input: "adanet/iteration_4/ensemble_3_layer_dnn/weighted_subnetwork_4/subnetwork/dense/bias"
  input: "save_1/RestoreV2:91"
  attr {
    key: "T"
    value {
      type: DT_FLOAT
    }
  }
  attr {
    key: "_class"
    value {
      list {
        s: "loc:@adanet/iteration_4/ensemble_3_layer_dnn/weighted_subnetwork_4/subnetwork/dense/bias"
      }
    }
  }
  attr {
    key: "_output_shapes"
    value {
      list {
        shape {
          dim {
            size: 32
          }
        }
      }
    }
  }
  attr {
    key: "use_locking"
    value {
      b: true
    }
  }
  attr {
    key: "validate_shape"
    value {
      b: true
    }
  }
}
node {
  name: "save_1/Assign_92"
  op: "Assign"
  input: "adanet/iteration_4/ensemble_3_layer_dnn/weighted_subnetwork_4/subnetwork/dense/kernel"
  input: "save_1/RestoreV2:92"
  attr {
    key: "T"
    value {
      type: DT_FLOAT
    }
  }
  attr {
    key: "_class"
    value {
      list {
        s: "loc:@adanet/iteration_4/ensemble_3_layer_dnn/weighted_subnetwork_4/subnetwork/dense/kernel"
      }
    }
  }
  attr {
    key: "_output_shapes"
    value {
      list {
        shape {
          dim {
            size: 13
          }
          dim {
            size: 32
          }
        }
      }
    }
  }
  attr {
    key: "use_locking"
    value {
      b: true
    }
  }
  attr {
    key: "validate_shape"
    value {
      b: true
    }
  }
}
node {
  name: "save_1/Assign_93"
  op: "Assign"
  input: "adanet/iteration_4/ensemble_3_layer_dnn/weighted_subnetwork_4/subnetwork/dense_1/bias"
  input: "save_1/RestoreV2:93"
  attr {
    key: "T"
    value {
      type: DT_FLOAT
    }
  }
  attr {
    key: "_class"
    value {
      list {
        s: "loc:@adanet/iteration_4/ensemble_3_layer_dnn/weighted_subnetwork_4/subnetwork/dense_1/bias"
      }
    }
  }
  attr {
    key: "_output_shapes"
    value {
      list {
        shape {
          dim {
            size: 32
          }
        }
      }
    }
  }
  attr {
    key: "use_locking"
    value {
      b: true
    }
  }
  attr {
    key: "validate_shape"
    value {
      b: true
    }
  }
}
node {
  name: "save_1/Assign_94"
  op: "Assign"
  input: "adanet/iteration_4/ensemble_3_layer_dnn/weighted_subnetwork_4/subnetwork/dense_1/kernel"
  input: "save_1/RestoreV2:94"
  attr {
    key: "T"
    value {
      type: DT_FLOAT
    }
  }
  attr {
    key: "_class"
    value {
      list {
        s: "loc:@adanet/iteration_4/ensemble_3_layer_dnn/weighted_subnetwork_4/subnetwork/dense_1/kernel"
      }
    }
  }
  attr {
    key: "_output_shapes"
    value {
      list {
        shape {
          dim {
            size: 32
          }
          dim {
            size: 32
          }
        }
      }
    }
  }
  attr {
    key: "use_locking"
    value {
      b: true
    }
  }
  attr {
    key: "validate_shape"
    value {
      b: true
    }
  }
}
node {
  name: "save_1/Assign_95"
  op: "Assign"
  input: "adanet/iteration_4/ensemble_3_layer_dnn/weighted_subnetwork_4/subnetwork/dense_2/bias"
  input: "save_1/RestoreV2:95"
  attr {
    key: "T"
    value {
      type: DT_FLOAT
    }
  }
  attr {
    key: "_class"
    value {
      list {
        s: "loc:@adanet/iteration_4/ensemble_3_layer_dnn/weighted_subnetwork_4/subnetwork/dense_2/bias"
      }
    }
  }
  attr {
    key: "_output_shapes"
    value {
      list {
        shape {
          dim {
            size: 32
          }
        }
      }
    }
  }
  attr {
    key: "use_locking"
    value {
      b: true
    }
  }
  attr {
    key: "validate_shape"
    value {
      b: true
    }
  }
}
node {
  name: "save_1/Assign_96"
  op: "Assign"
  input: "adanet/iteration_4/ensemble_3_layer_dnn/weighted_subnetwork_4/subnetwork/dense_2/kernel"
  input: "save_1/RestoreV2:96"
  attr {
    key: "T"
    value {
      type: DT_FLOAT
    }
  }
  attr {
    key: "_class"
    value {
      list {
        s: "loc:@adanet/iteration_4/ensemble_3_layer_dnn/weighted_subnetwork_4/subnetwork/dense_2/kernel"
      }
    }
  }
  attr {
    key: "_output_shapes"
    value {
      list {
        shape {
          dim {
            size: 32
          }
          dim {
            size: 32
          }
        }
      }
    }
  }
  attr {
    key: "use_locking"
    value {
      b: true
    }
  }
  attr {
    key: "validate_shape"
    value {
      b: true
    }
  }
}
node {
  name: "save_1/Assign_97"
  op: "Assign"
  input: "adanet/iteration_4/ensemble_3_layer_dnn/weighted_subnetwork_4/subnetwork/dense_3/bias"
  input: "save_1/RestoreV2:97"
  attr {
    key: "T"
    value {
      type: DT_FLOAT
    }
  }
  attr {
    key: "_class"
    value {
      list {
        s: "loc:@adanet/iteration_4/ensemble_3_layer_dnn/weighted_subnetwork_4/subnetwork/dense_3/bias"
      }
    }
  }
  attr {
    key: "_output_shapes"
    value {
      list {
        shape {
          dim {
            size: 1
          }
        }
      }
    }
  }
  attr {
    key: "use_locking"
    value {
      b: true
    }
  }
  attr {
    key: "validate_shape"
    value {
      b: true
    }
  }
}
node {
  name: "save_1/Assign_98"
  op: "Assign"
  input: "adanet/iteration_4/ensemble_3_layer_dnn/weighted_subnetwork_4/subnetwork/dense_3/kernel"
  input: "save_1/RestoreV2:98"
  attr {
    key: "T"
    value {
      type: DT_FLOAT
    }
  }
  attr {
    key: "_class"
    value {
      list {
        s: "loc:@adanet/iteration_4/ensemble_3_layer_dnn/weighted_subnetwork_4/subnetwork/dense_3/kernel"
      }
    }
  }
  attr {
    key: "_output_shapes"
    value {
      list {
        shape {
          dim {
            size: 32
          }
          dim {
            size: 1
          }
        }
      }
    }
  }
  attr {
    key: "use_locking"
    value {
      b: true
    }
  }
  attr {
    key: "validate_shape"
    value {
      b: true
    }
  }
}
node {
  name: "save_1/Assign_99"
  op: "Assign"
  input: "adanet/iteration_4/ensemble_4_layer_dnn/bias"
  input: "save_1/RestoreV2:99"
  attr {
    key: "T"
    value {
      type: DT_FLOAT
    }
  }
  attr {
    key: "_class"
    value {
      list {
        s: "loc:@adanet/iteration_4/ensemble_4_layer_dnn/bias"
      }
    }
  }
  attr {
    key: "_output_shapes"
    value {
      list {
        shape {
          dim {
            size: 1
          }
        }
      }
    }
  }
  attr {
    key: "use_locking"
    value {
      b: true
    }
  }
  attr {
    key: "validate_shape"
    value {
      b: true
    }
  }
}
node {
  name: "save_1/Assign_100"
  op: "Assign"
  input: "adanet/iteration_4/ensemble_4_layer_dnn/train_subnetwork/adanet/iteration_4/ensemble_4_layer_dnn/weighted_subnetwork_4/subnetwork/dense/bias/RMSProp"
  input: "save_1/RestoreV2:100"
  attr {
    key: "T"
    value {
      type: DT_FLOAT
    }
  }
  attr {
    key: "_class"
    value {
      list {
        s: "loc:@adanet/iteration_4/ensemble_4_layer_dnn/weighted_subnetwork_4/subnetwork/dense/bias"
      }
    }
  }
  attr {
    key: "_output_shapes"
    value {
      list {
        shape {
          dim {
            size: 32
          }
        }
      }
    }
  }
  attr {
    key: "use_locking"
    value {
      b: true
    }
  }
  attr {
    key: "validate_shape"
    value {
      b: true
    }
  }
}
node {
  name: "save_1/Assign_101"
  op: "Assign"
  input: "adanet/iteration_4/ensemble_4_layer_dnn/train_subnetwork/adanet/iteration_4/ensemble_4_layer_dnn/weighted_subnetwork_4/subnetwork/dense/bias/RMSProp_1"
  input: "save_1/RestoreV2:101"
  attr {
    key: "T"
    value {
      type: DT_FLOAT
    }
  }
  attr {
    key: "_class"
    value {
      list {
        s: "loc:@adanet/iteration_4/ensemble_4_layer_dnn/weighted_subnetwork_4/subnetwork/dense/bias"
      }
    }
  }
  attr {
    key: "_output_shapes"
    value {
      list {
        shape {
          dim {
            size: 32
          }
        }
      }
    }
  }
  attr {
    key: "use_locking"
    value {
      b: true
    }
  }
  attr {
    key: "validate_shape"
    value {
      b: true
    }
  }
}
node {
  name: "save_1/Assign_102"
  op: "Assign"
  input: "adanet/iteration_4/ensemble_4_layer_dnn/train_subnetwork/adanet/iteration_4/ensemble_4_layer_dnn/weighted_subnetwork_4/subnetwork/dense/kernel/RMSProp"
  input: "save_1/RestoreV2:102"
  attr {
    key: "T"
    value {
      type: DT_FLOAT
    }
  }
  attr {
    key: "_class"
    value {
      list {
        s: "loc:@adanet/iteration_4/ensemble_4_layer_dnn/weighted_subnetwork_4/subnetwork/dense/kernel"
      }
    }
  }
  attr {
    key: "_output_shapes"
    value {
      list {
        shape {
          dim {
            size: 13
          }
          dim {
            size: 32
          }
        }
      }
    }
  }
  attr {
    key: "use_locking"
    value {
      b: true
    }
  }
  attr {
    key: "validate_shape"
    value {
      b: true
    }
  }
}
node {
  name: "save_1/Assign_103"
  op: "Assign"
  input: "adanet/iteration_4/ensemble_4_layer_dnn/train_subnetwork/adanet/iteration_4/ensemble_4_layer_dnn/weighted_subnetwork_4/subnetwork/dense/kernel/RMSProp_1"
  input: "save_1/RestoreV2:103"
  attr {
    key: "T"
    value {
      type: DT_FLOAT
    }
  }
  attr {
    key: "_class"
    value {
      list {
        s: "loc:@adanet/iteration_4/ensemble_4_layer_dnn/weighted_subnetwork_4/subnetwork/dense/kernel"
      }
    }
  }
  attr {
    key: "_output_shapes"
    value {
      list {
        shape {
          dim {
            size: 13
          }
          dim {
            size: 32
          }
        }
      }
    }
  }
  attr {
    key: "use_locking"
    value {
      b: true
    }
  }
  attr {
    key: "validate_shape"
    value {
      b: true
    }
  }
}
node {
  name: "save_1/Assign_104"
  op: "Assign"
  input: "adanet/iteration_4/ensemble_4_layer_dnn/train_subnetwork/adanet/iteration_4/ensemble_4_layer_dnn/weighted_subnetwork_4/subnetwork/dense_1/bias/RMSProp"
  input: "save_1/RestoreV2:104"
  attr {
    key: "T"
    value {
      type: DT_FLOAT
    }
  }
  attr {
    key: "_class"
    value {
      list {
        s: "loc:@adanet/iteration_4/ensemble_4_layer_dnn/weighted_subnetwork_4/subnetwork/dense_1/bias"
      }
    }
  }
  attr {
    key: "_output_shapes"
    value {
      list {
        shape {
          dim {
            size: 32
          }
        }
      }
    }
  }
  attr {
    key: "use_locking"
    value {
      b: true
    }
  }
  attr {
    key: "validate_shape"
    value {
      b: true
    }
  }
}
node {
  name: "save_1/Assign_105"
  op: "Assign"
  input: "adanet/iteration_4/ensemble_4_layer_dnn/train_subnetwork/adanet/iteration_4/ensemble_4_layer_dnn/weighted_subnetwork_4/subnetwork/dense_1/bias/RMSProp_1"
  input: "save_1/RestoreV2:105"
  attr {
    key: "T"
    value {
      type: DT_FLOAT
    }
  }
  attr {
    key: "_class"
    value {
      list {
        s: "loc:@adanet/iteration_4/ensemble_4_layer_dnn/weighted_subnetwork_4/subnetwork/dense_1/bias"
      }
    }
  }
  attr {
    key: "_output_shapes"
    value {
      list {
        shape {
          dim {
            size: 32
          }
        }
      }
    }
  }
  attr {
    key: "use_locking"
    value {
      b: true
    }
  }
  attr {
    key: "validate_shape"
    value {
      b: true
    }
  }
}
node {
  name: "save_1/Assign_106"
  op: "Assign"
  input: "adanet/iteration_4/ensemble_4_layer_dnn/train_subnetwork/adanet/iteration_4/ensemble_4_layer_dnn/weighted_subnetwork_4/subnetwork/dense_1/kernel/RMSProp"
  input: "save_1/RestoreV2:106"
  attr {
    key: "T"
    value {
      type: DT_FLOAT
    }
  }
  attr {
    key: "_class"
    value {
      list {
        s: "loc:@adanet/iteration_4/ensemble_4_layer_dnn/weighted_subnetwork_4/subnetwork/dense_1/kernel"
      }
    }
  }
  attr {
    key: "_output_shapes"
    value {
      list {
        shape {
          dim {
            size: 32
          }
          dim {
            size: 32
          }
        }
      }
    }
  }
  attr {
    key: "use_locking"
    value {
      b: true
    }
  }
  attr {
    key: "validate_shape"
    value {
      b: true
    }
  }
}
node {
  name: "save_1/Assign_107"
  op: "Assign"
  input: "adanet/iteration_4/ensemble_4_layer_dnn/train_subnetwork/adanet/iteration_4/ensemble_4_layer_dnn/weighted_subnetwork_4/subnetwork/dense_1/kernel/RMSProp_1"
  input: "save_1/RestoreV2:107"
  attr {
    key: "T"
    value {
      type: DT_FLOAT
    }
  }
  attr {
    key: "_class"
    value {
      list {
        s: "loc:@adanet/iteration_4/ensemble_4_layer_dnn/weighted_subnetwork_4/subnetwork/dense_1/kernel"
      }
    }
  }
  attr {
    key: "_output_shapes"
    value {
      list {
        shape {
          dim {
            size: 32
          }
          dim {
            size: 32
          }
        }
      }
    }
  }
  attr {
    key: "use_locking"
    value {
      b: true
    }
  }
  attr {
    key: "validate_shape"
    value {
      b: true
    }
  }
}
node {
  name: "save_1/Assign_108"
  op: "Assign"
  input: "adanet/iteration_4/ensemble_4_layer_dnn/train_subnetwork/adanet/iteration_4/ensemble_4_layer_dnn/weighted_subnetwork_4/subnetwork/dense_2/bias/RMSProp"
  input: "save_1/RestoreV2:108"
  attr {
    key: "T"
    value {
      type: DT_FLOAT
    }
  }
  attr {
    key: "_class"
    value {
      list {
        s: "loc:@adanet/iteration_4/ensemble_4_layer_dnn/weighted_subnetwork_4/subnetwork/dense_2/bias"
      }
    }
  }
  attr {
    key: "_output_shapes"
    value {
      list {
        shape {
          dim {
            size: 32
          }
        }
      }
    }
  }
  attr {
    key: "use_locking"
    value {
      b: true
    }
  }
  attr {
    key: "validate_shape"
    value {
      b: true
    }
  }
}
node {
  name: "save_1/Assign_109"
  op: "Assign"
  input: "adanet/iteration_4/ensemble_4_layer_dnn/train_subnetwork/adanet/iteration_4/ensemble_4_layer_dnn/weighted_subnetwork_4/subnetwork/dense_2/bias/RMSProp_1"
  input: "save_1/RestoreV2:109"
  attr {
    key: "T"
    value {
      type: DT_FLOAT
    }
  }
  attr {
    key: "_class"
    value {
      list {
        s: "loc:@adanet/iteration_4/ensemble_4_layer_dnn/weighted_subnetwork_4/subnetwork/dense_2/bias"
      }
    }
  }
  attr {
    key: "_output_shapes"
    value {
      list {
        shape {
          dim {
            size: 32
          }
        }
      }
    }
  }
  attr {
    key: "use_locking"
    value {
      b: true
    }
  }
  attr {
    key: "validate_shape"
    value {
      b: true
    }
  }
}
node {
  name: "save_1/Assign_110"
  op: "Assign"
  input: "adanet/iteration_4/ensemble_4_layer_dnn/train_subnetwork/adanet/iteration_4/ensemble_4_layer_dnn/weighted_subnetwork_4/subnetwork/dense_2/kernel/RMSProp"
  input: "save_1/RestoreV2:110"
  attr {
    key: "T"
    value {
      type: DT_FLOAT
    }
  }
  attr {
    key: "_class"
    value {
      list {
        s: "loc:@adanet/iteration_4/ensemble_4_layer_dnn/weighted_subnetwork_4/subnetwork/dense_2/kernel"
      }
    }
  }
  attr {
    key: "_output_shapes"
    value {
      list {
        shape {
          dim {
            size: 32
          }
          dim {
            size: 32
          }
        }
      }
    }
  }
  attr {
    key: "use_locking"
    value {
      b: true
    }
  }
  attr {
    key: "validate_shape"
    value {
      b: true
    }
  }
}
node {
  name: "save_1/Assign_111"
  op: "Assign"
  input: "adanet/iteration_4/ensemble_4_layer_dnn/train_subnetwork/adanet/iteration_4/ensemble_4_layer_dnn/weighted_subnetwork_4/subnetwork/dense_2/kernel/RMSProp_1"
  input: "save_1/RestoreV2:111"
  attr {
    key: "T"
    value {
      type: DT_FLOAT
    }
  }
  attr {
    key: "_class"
    value {
      list {
        s: "loc:@adanet/iteration_4/ensemble_4_layer_dnn/weighted_subnetwork_4/subnetwork/dense_2/kernel"
      }
    }
  }
  attr {
    key: "_output_shapes"
    value {
      list {
        shape {
          dim {
            size: 32
          }
          dim {
            size: 32
          }
        }
      }
    }
  }
  attr {
    key: "use_locking"
    value {
      b: true
    }
  }
  attr {
    key: "validate_shape"
    value {
      b: true
    }
  }
}
node {
  name: "save_1/Assign_112"
  op: "Assign"
  input: "adanet/iteration_4/ensemble_4_layer_dnn/train_subnetwork/adanet/iteration_4/ensemble_4_layer_dnn/weighted_subnetwork_4/subnetwork/dense_3/bias/RMSProp"
  input: "save_1/RestoreV2:112"
  attr {
    key: "T"
    value {
      type: DT_FLOAT
    }
  }
  attr {
    key: "_class"
    value {
      list {
        s: "loc:@adanet/iteration_4/ensemble_4_layer_dnn/weighted_subnetwork_4/subnetwork/dense_3/bias"
      }
    }
  }
  attr {
    key: "_output_shapes"
    value {
      list {
        shape {
          dim {
            size: 32
          }
        }
      }
    }
  }
  attr {
    key: "use_locking"
    value {
      b: true
    }
  }
  attr {
    key: "validate_shape"
    value {
      b: true
    }
  }
}
node {
  name: "save_1/Assign_113"
  op: "Assign"
  input: "adanet/iteration_4/ensemble_4_layer_dnn/train_subnetwork/adanet/iteration_4/ensemble_4_layer_dnn/weighted_subnetwork_4/subnetwork/dense_3/bias/RMSProp_1"
  input: "save_1/RestoreV2:113"
  attr {
    key: "T"
    value {
      type: DT_FLOAT
    }
  }
  attr {
    key: "_class"
    value {
      list {
        s: "loc:@adanet/iteration_4/ensemble_4_layer_dnn/weighted_subnetwork_4/subnetwork/dense_3/bias"
      }
    }
  }
  attr {
    key: "_output_shapes"
    value {
      list {
        shape {
          dim {
            size: 32
          }
        }
      }
    }
  }
  attr {
    key: "use_locking"
    value {
      b: true
    }
  }
  attr {
    key: "validate_shape"
    value {
      b: true
    }
  }
}
node {
  name: "save_1/Assign_114"
  op: "Assign"
  input: "adanet/iteration_4/ensemble_4_layer_dnn/train_subnetwork/adanet/iteration_4/ensemble_4_layer_dnn/weighted_subnetwork_4/subnetwork/dense_3/kernel/RMSProp"
  input: "save_1/RestoreV2:114"
  attr {
    key: "T"
    value {
      type: DT_FLOAT
    }
  }
  attr {
    key: "_class"
    value {
      list {
        s: "loc:@adanet/iteration_4/ensemble_4_layer_dnn/weighted_subnetwork_4/subnetwork/dense_3/kernel"
      }
    }
  }
  attr {
    key: "_output_shapes"
    value {
      list {
        shape {
          dim {
            size: 32
          }
          dim {
            size: 32
          }
        }
      }
    }
  }
  attr {
    key: "use_locking"
    value {
      b: true
    }
  }
  attr {
    key: "validate_shape"
    value {
      b: true
    }
  }
}
node {
  name: "save_1/Assign_115"
  op: "Assign"
  input: "adanet/iteration_4/ensemble_4_layer_dnn/train_subnetwork/adanet/iteration_4/ensemble_4_layer_dnn/weighted_subnetwork_4/subnetwork/dense_3/kernel/RMSProp_1"
  input: "save_1/RestoreV2:115"
  attr {
    key: "T"
    value {
      type: DT_FLOAT
    }
  }
  attr {
    key: "_class"
    value {
      list {
        s: "loc:@adanet/iteration_4/ensemble_4_layer_dnn/weighted_subnetwork_4/subnetwork/dense_3/kernel"
      }
    }
  }
  attr {
    key: "_output_shapes"
    value {
      list {
        shape {
          dim {
            size: 32
          }
          dim {
            size: 32
          }
        }
      }
    }
  }
  attr {
    key: "use_locking"
    value {
      b: true
    }
  }
  attr {
    key: "validate_shape"
    value {
      b: true
    }
  }
}
node {
  name: "save_1/Assign_116"
  op: "Assign"
  input: "adanet/iteration_4/ensemble_4_layer_dnn/train_subnetwork/adanet/iteration_4/ensemble_4_layer_dnn/weighted_subnetwork_4/subnetwork/dense_4/bias/RMSProp"
  input: "save_1/RestoreV2:116"
  attr {
    key: "T"
    value {
      type: DT_FLOAT
    }
  }
  attr {
    key: "_class"
    value {
      list {
        s: "loc:@adanet/iteration_4/ensemble_4_layer_dnn/weighted_subnetwork_4/subnetwork/dense_4/bias"
      }
    }
  }
  attr {
    key: "_output_shapes"
    value {
      list {
        shape {
          dim {
            size: 1
          }
        }
      }
    }
  }
  attr {
    key: "use_locking"
    value {
      b: true
    }
  }
  attr {
    key: "validate_shape"
    value {
      b: true
    }
  }
}
node {
  name: "save_1/Assign_117"
  op: "Assign"
  input: "adanet/iteration_4/ensemble_4_layer_dnn/train_subnetwork/adanet/iteration_4/ensemble_4_layer_dnn/weighted_subnetwork_4/subnetwork/dense_4/bias/RMSProp_1"
  input: "save_1/RestoreV2:117"
  attr {
    key: "T"
    value {
      type: DT_FLOAT
    }
  }
  attr {
    key: "_class"
    value {
      list {
        s: "loc:@adanet/iteration_4/ensemble_4_layer_dnn/weighted_subnetwork_4/subnetwork/dense_4/bias"
      }
    }
  }
  attr {
    key: "_output_shapes"
    value {
      list {
        shape {
          dim {
            size: 1
          }
        }
      }
    }
  }
  attr {
    key: "use_locking"
    value {
      b: true
    }
  }
  attr {
    key: "validate_shape"
    value {
      b: true
    }
  }
}
node {
  name: "save_1/Assign_118"
  op: "Assign"
  input: "adanet/iteration_4/ensemble_4_layer_dnn/train_subnetwork/adanet/iteration_4/ensemble_4_layer_dnn/weighted_subnetwork_4/subnetwork/dense_4/kernel/RMSProp"
  input: "save_1/RestoreV2:118"
  attr {
    key: "T"
    value {
      type: DT_FLOAT
    }
  }
  attr {
    key: "_class"
    value {
      list {
        s: "loc:@adanet/iteration_4/ensemble_4_layer_dnn/weighted_subnetwork_4/subnetwork/dense_4/kernel"
      }
    }
  }
  attr {
    key: "_output_shapes"
    value {
      list {
        shape {
          dim {
            size: 32
          }
          dim {
            size: 1
          }
        }
      }
    }
  }
  attr {
    key: "use_locking"
    value {
      b: true
    }
  }
  attr {
    key: "validate_shape"
    value {
      b: true
    }
  }
}
node {
  name: "save_1/Assign_119"
  op: "Assign"
  input: "adanet/iteration_4/ensemble_4_layer_dnn/train_subnetwork/adanet/iteration_4/ensemble_4_layer_dnn/weighted_subnetwork_4/subnetwork/dense_4/kernel/RMSProp_1"
  input: "save_1/RestoreV2:119"
  attr {
    key: "T"
    value {
      type: DT_FLOAT
    }
  }
  attr {
    key: "_class"
    value {
      list {
        s: "loc:@adanet/iteration_4/ensemble_4_layer_dnn/weighted_subnetwork_4/subnetwork/dense_4/kernel"
      }
    }
  }
  attr {
    key: "_output_shapes"
    value {
      list {
        shape {
          dim {
            size: 32
          }
          dim {
            size: 1
          }
        }
      }
    }
  }
  attr {
    key: "use_locking"
    value {
      b: true
    }
  }
  attr {
    key: "validate_shape"
    value {
      b: true
    }
  }
}
node {
  name: "save_1/Assign_120"
  op: "Assign"
  input: "adanet/iteration_4/ensemble_4_layer_dnn/weighted_subnetwork_0/logits/mixture_weight"
  input: "save_1/RestoreV2:120"
  attr {
    key: "T"
    value {
      type: DT_FLOAT
    }
  }
  attr {
    key: "_class"
    value {
      list {
        s: "loc:@adanet/iteration_4/ensemble_4_layer_dnn/weighted_subnetwork_0/logits/mixture_weight"
      }
    }
  }
  attr {
    key: "_output_shapes"
    value {
      list {
        shape {
        }
      }
    }
  }
  attr {
    key: "use_locking"
    value {
      b: true
    }
  }
  attr {
    key: "validate_shape"
    value {
      b: true
    }
  }
}
node {
  name: "save_1/Assign_121"
  op: "Assign"
  input: "adanet/iteration_4/ensemble_4_layer_dnn/weighted_subnetwork_1/logits/mixture_weight"
  input: "save_1/RestoreV2:121"
  attr {
    key: "T"
    value {
      type: DT_FLOAT
    }
  }
  attr {
    key: "_class"
    value {
      list {
        s: "loc:@adanet/iteration_4/ensemble_4_layer_dnn/weighted_subnetwork_1/logits/mixture_weight"
      }
    }
  }
  attr {
    key: "_output_shapes"
    value {
      list {
        shape {
        }
      }
    }
  }
  attr {
    key: "use_locking"
    value {
      b: true
    }
  }
  attr {
    key: "validate_shape"
    value {
      b: true
    }
  }
}
node {
  name: "save_1/Assign_122"
  op: "Assign"
  input: "adanet/iteration_4/ensemble_4_layer_dnn/weighted_subnetwork_2/logits/mixture_weight"
  input: "save_1/RestoreV2:122"
  attr {
    key: "T"
    value {
      type: DT_FLOAT
    }
  }
  attr {
    key: "_class"
    value {
      list {
        s: "loc:@adanet/iteration_4/ensemble_4_layer_dnn/weighted_subnetwork_2/logits/mixture_weight"
      }
    }
  }
  attr {
    key: "_output_shapes"
    value {
      list {
        shape {
        }
      }
    }
  }
  attr {
    key: "use_locking"
    value {
      b: true
    }
  }
  attr {
    key: "validate_shape"
    value {
      b: true
    }
  }
}
node {
  name: "save_1/Assign_123"
  op: "Assign"
  input: "adanet/iteration_4/ensemble_4_layer_dnn/weighted_subnetwork_3/logits/mixture_weight"
  input: "save_1/RestoreV2:123"
  attr {
    key: "T"
    value {
      type: DT_FLOAT
    }
  }
  attr {
    key: "_class"
    value {
      list {
        s: "loc:@adanet/iteration_4/ensemble_4_layer_dnn/weighted_subnetwork_3/logits/mixture_weight"
      }
    }
  }
  attr {
    key: "_output_shapes"
    value {
      list {
        shape {
        }
      }
    }
  }
  attr {
    key: "use_locking"
    value {
      b: true
    }
  }
  attr {
    key: "validate_shape"
    value {
      b: true
    }
  }
}
node {
  name: "save_1/Assign_124"
  op: "Assign"
  input: "adanet/iteration_4/ensemble_4_layer_dnn/weighted_subnetwork_4/logits/mixture_weight"
  input: "save_1/RestoreV2:124"
  attr {
    key: "T"
    value {
      type: DT_FLOAT
    }
  }
  attr {
    key: "_class"
    value {
      list {
        s: "loc:@adanet/iteration_4/ensemble_4_layer_dnn/weighted_subnetwork_4/logits/mixture_weight"
      }
    }
  }
  attr {
    key: "_output_shapes"
    value {
      list {
        shape {
        }
      }
    }
  }
  attr {
    key: "use_locking"
    value {
      b: true
    }
  }
  attr {
    key: "validate_shape"
    value {
      b: true
    }
  }
}
node {
  name: "save_1/Assign_125"
  op: "Assign"
  input: "adanet/iteration_4/ensemble_4_layer_dnn/weighted_subnetwork_4/subnetwork/dense/bias"
  input: "save_1/RestoreV2:125"
  attr {
    key: "T"
    value {
      type: DT_FLOAT
    }
  }
  attr {
    key: "_class"
    value {
      list {
        s: "loc:@adanet/iteration_4/ensemble_4_layer_dnn/weighted_subnetwork_4/subnetwork/dense/bias"
      }
    }
  }
  attr {
    key: "_output_shapes"
    value {
      list {
        shape {
          dim {
            size: 32
          }
        }
      }
    }
  }
  attr {
    key: "use_locking"
    value {
      b: true
    }
  }
  attr {
    key: "validate_shape"
    value {
      b: true
    }
  }
}
node {
  name: "save_1/Assign_126"
  op: "Assign"
  input: "adanet/iteration_4/ensemble_4_layer_dnn/weighted_subnetwork_4/subnetwork/dense/kernel"
  input: "save_1/RestoreV2:126"
  attr {
    key: "T"
    value {
      type: DT_FLOAT
    }
  }
  attr {
    key: "_class"
    value {
      list {
        s: "loc:@adanet/iteration_4/ensemble_4_layer_dnn/weighted_subnetwork_4/subnetwork/dense/kernel"
      }
    }
  }
  attr {
    key: "_output_shapes"
    value {
      list {
        shape {
          dim {
            size: 13
          }
          dim {
            size: 32
          }
        }
      }
    }
  }
  attr {
    key: "use_locking"
    value {
      b: true
    }
  }
  attr {
    key: "validate_shape"
    value {
      b: true
    }
  }
}
node {
  name: "save_1/Assign_127"
  op: "Assign"
  input: "adanet/iteration_4/ensemble_4_layer_dnn/weighted_subnetwork_4/subnetwork/dense_1/bias"
  input: "save_1/RestoreV2:127"
  attr {
    key: "T"
    value {
      type: DT_FLOAT
    }
  }
  attr {
    key: "_class"
    value {
      list {
        s: "loc:@adanet/iteration_4/ensemble_4_layer_dnn/weighted_subnetwork_4/subnetwork/dense_1/bias"
      }
    }
  }
  attr {
    key: "_output_shapes"
    value {
      list {
        shape {
          dim {
            size: 32
          }
        }
      }
    }
  }
  attr {
    key: "use_locking"
    value {
      b: true
    }
  }
  attr {
    key: "validate_shape"
    value {
      b: true
    }
  }
}
node {
  name: "save_1/Assign_128"
  op: "Assign"
  input: "adanet/iteration_4/ensemble_4_layer_dnn/weighted_subnetwork_4/subnetwork/dense_1/kernel"
  input: "save_1/RestoreV2:128"
  attr {
    key: "T"
    value {
      type: DT_FLOAT
    }
  }
  attr {
    key: "_class"
    value {
      list {
        s: "loc:@adanet/iteration_4/ensemble_4_layer_dnn/weighted_subnetwork_4/subnetwork/dense_1/kernel"
      }
    }
  }
  attr {
    key: "_output_shapes"
    value {
      list {
        shape {
          dim {
            size: 32
          }
          dim {
            size: 32
          }
        }
      }
    }
  }
  attr {
    key: "use_locking"
    value {
      b: true
    }
  }
  attr {
    key: "validate_shape"
    value {
      b: true
    }
  }
}
node {
  name: "save_1/Assign_129"
  op: "Assign"
  input: "adanet/iteration_4/ensemble_4_layer_dnn/weighted_subnetwork_4/subnetwork/dense_2/bias"
  input: "save_1/RestoreV2:129"
  attr {
    key: "T"
    value {
      type: DT_FLOAT
    }
  }
  attr {
    key: "_class"
    value {
      list {
        s: "loc:@adanet/iteration_4/ensemble_4_layer_dnn/weighted_subnetwork_4/subnetwork/dense_2/bias"
      }
    }
  }
  attr {
    key: "_output_shapes"
    value {
      list {
        shape {
          dim {
            size: 32
          }
        }
      }
    }
  }
  attr {
    key: "use_locking"
    value {
      b: true
    }
  }
  attr {
    key: "validate_shape"
    value {
      b: true
    }
  }
}
node {
  name: "save_1/Assign_130"
  op: "Assign"
  input: "adanet/iteration_4/ensemble_4_layer_dnn/weighted_subnetwork_4/subnetwork/dense_2/kernel"
  input: "save_1/RestoreV2:130"
  attr {
    key: "T"
    value {
      type: DT_FLOAT
    }
  }
  attr {
    key: "_class"
    value {
      list {
        s: "loc:@adanet/iteration_4/ensemble_4_layer_dnn/weighted_subnetwork_4/subnetwork/dense_2/kernel"
      }
    }
  }
  attr {
    key: "_output_shapes"
    value {
      list {
        shape {
          dim {
            size: 32
          }
          dim {
            size: 32
          }
        }
      }
    }
  }
  attr {
    key: "use_locking"
    value {
      b: true
    }
  }
  attr {
    key: "validate_shape"
    value {
      b: true
    }
  }
}
node {
  name: "save_1/Assign_131"
  op: "Assign"
  input: "adanet/iteration_4/ensemble_4_layer_dnn/weighted_subnetwork_4/subnetwork/dense_3/bias"
  input: "save_1/RestoreV2:131"
  attr {
    key: "T"
    value {
      type: DT_FLOAT
    }
  }
  attr {
    key: "_class"
    value {
      list {
        s: "loc:@adanet/iteration_4/ensemble_4_layer_dnn/weighted_subnetwork_4/subnetwork/dense_3/bias"
      }
    }
  }
  attr {
    key: "_output_shapes"
    value {
      list {
        shape {
          dim {
            size: 32
          }
        }
      }
    }
  }
  attr {
    key: "use_locking"
    value {
      b: true
    }
  }
  attr {
    key: "validate_shape"
    value {
      b: true
    }
  }
}
node {
  name: "save_1/Assign_132"
  op: "Assign"
  input: "adanet/iteration_4/ensemble_4_layer_dnn/weighted_subnetwork_4/subnetwork/dense_3/kernel"
  input: "save_1/RestoreV2:132"
  attr {
    key: "T"
    value {
      type: DT_FLOAT
    }
  }
  attr {
    key: "_class"
    value {
      list {
        s: "loc:@adanet/iteration_4/ensemble_4_layer_dnn/weighted_subnetwork_4/subnetwork/dense_3/kernel"
      }
    }
  }
  attr {
    key: "_output_shapes"
    value {
      list {
        shape {
          dim {
            size: 32
          }
          dim {
            size: 32
          }
        }
      }
    }
  }
  attr {
    key: "use_locking"
    value {
      b: true
    }
  }
  attr {
    key: "validate_shape"
    value {
      b: true
    }
  }
}
node {
  name: "save_1/Assign_133"
  op: "Assign"
  input: "adanet/iteration_4/ensemble_4_layer_dnn/weighted_subnetwork_4/subnetwork/dense_4/bias"
  input: "save_1/RestoreV2:133"
  attr {
    key: "T"
    value {
      type: DT_FLOAT
    }
  }
  attr {
    key: "_class"
    value {
      list {
        s: "loc:@adanet/iteration_4/ensemble_4_layer_dnn/weighted_subnetwork_4/subnetwork/dense_4/bias"
      }
    }
  }
  attr {
    key: "_output_shapes"
    value {
      list {
        shape {
          dim {
            size: 1
          }
        }
      }
    }
  }
  attr {
    key: "use_locking"
    value {
      b: true
    }
  }
  attr {
    key: "validate_shape"
    value {
      b: true
    }
  }
}
node {
  name: "save_1/Assign_134"
  op: "Assign"
  input: "adanet/iteration_4/ensemble_4_layer_dnn/weighted_subnetwork_4/subnetwork/dense_4/kernel"
  input: "save_1/RestoreV2:134"
  attr {
    key: "T"
    value {
      type: DT_FLOAT
    }
  }
  attr {
    key: "_class"
    value {
      list {
        s: "loc:@adanet/iteration_4/ensemble_4_layer_dnn/weighted_subnetwork_4/subnetwork/dense_4/kernel"
      }
    }
  }
  attr {
    key: "_output_shapes"
    value {
      list {
        shape {
          dim {
            size: 32
          }
          dim {
            size: 1
          }
        }
      }
    }
  }
  attr {
    key: "use_locking"
    value {
      b: true
    }
  }
  attr {
    key: "validate_shape"
    value {
      b: true
    }
  }
}
node {
  name: "save_1/Assign_135"
  op: "Assign"
  input: "adanet/iteration_4/step"
  input: "save_1/RestoreV2:135"
  attr {
    key: "T"
    value {
      type: DT_INT64
    }
  }
  attr {
    key: "_class"
    value {
      list {
        s: "loc:@adanet/iteration_4/step"
      }
    }
  }
  attr {
    key: "_output_shapes"
    value {
      list {
        shape {
        }
      }
    }
  }
  attr {
    key: "use_locking"
    value {
      b: true
    }
  }
  attr {
    key: "validate_shape"
    value {
      b: true
    }
  }
}
node {
  name: "save_1/Assign_136"
  op: "Assign"
  input: "current_iteration"
  input: "save_1/RestoreV2:136"
  attr {
    key: "T"
    value {
      type: DT_INT64
    }
  }
  attr {
    key: "_class"
    value {
      list {
        s: "loc:@current_iteration"
      }
    }
  }
  attr {
    key: "_output_shapes"
    value {
      list {
        shape {
        }
      }
    }
  }
  attr {
    key: "use_locking"
    value {
      b: true
    }
  }
  attr {
    key: "validate_shape"
    value {
      b: true
    }
  }
}
node {
  name: "save_1/Assign_137"
  op: "Assign"
  input: "global_step"
  input: "save_1/RestoreV2:137"
  attr {
    key: "T"
    value {
      type: DT_INT64
    }
  }
  attr {
    key: "_class"
    value {
      list {
        s: "loc:@global_step"
      }
    }
  }
  attr {
    key: "_output_shapes"
    value {
      list {
        shape {
        }
      }
    }
  }
  attr {
    key: "use_locking"
    value {
      b: true
    }
  }
  attr {
    key: "validate_shape"
    value {
      b: true
    }
  }
}
node {
  name: "save_1/restore_shard"
  op: "NoOp"
  input: "^save_1/Assign"
  input: "^save_1/Assign_1"
  input: "^save_1/Assign_10"
  input: "^save_1/Assign_100"
  input: "^save_1/Assign_101"
  input: "^save_1/Assign_102"
  input: "^save_1/Assign_103"
  input: "^save_1/Assign_104"
  input: "^save_1/Assign_105"
  input: "^save_1/Assign_106"
  input: "^save_1/Assign_107"
  input: "^save_1/Assign_108"
  input: "^save_1/Assign_109"
  input: "^save_1/Assign_11"
  input: "^save_1/Assign_110"
  input: "^save_1/Assign_111"
  input: "^save_1/Assign_112"
  input: "^save_1/Assign_113"
  input: "^save_1/Assign_114"
  input: "^save_1/Assign_115"
  input: "^save_1/Assign_116"
  input: "^save_1/Assign_117"
  input: "^save_1/Assign_118"
  input: "^save_1/Assign_119"
  input: "^save_1/Assign_12"
  input: "^save_1/Assign_120"
  input: "^save_1/Assign_121"
  input: "^save_1/Assign_122"
  input: "^save_1/Assign_123"
  input: "^save_1/Assign_124"
  input: "^save_1/Assign_125"
  input: "^save_1/Assign_126"
  input: "^save_1/Assign_127"
  input: "^save_1/Assign_128"
  input: "^save_1/Assign_129"
  input: "^save_1/Assign_13"
  input: "^save_1/Assign_130"
  input: "^save_1/Assign_131"
  input: "^save_1/Assign_132"
  input: "^save_1/Assign_133"
  input: "^save_1/Assign_134"
  input: "^save_1/Assign_135"
  input: "^save_1/Assign_136"
  input: "^save_1/Assign_137"
  input: "^save_1/Assign_14"
  input: "^save_1/Assign_15"
  input: "^save_1/Assign_16"
  input: "^save_1/Assign_17"
  input: "^save_1/Assign_18"
  input: "^save_1/Assign_19"
  input: "^save_1/Assign_2"
  input: "^save_1/Assign_20"
  input: "^save_1/Assign_21"
  input: "^save_1/Assign_22"
  input: "^save_1/Assign_23"
  input: "^save_1/Assign_24"
  input: "^save_1/Assign_25"
  input: "^save_1/Assign_26"
  input: "^save_1/Assign_27"
  input: "^save_1/Assign_28"
  input: "^save_1/Assign_29"
  input: "^save_1/Assign_3"
  input: "^save_1/Assign_30"
  input: "^save_1/Assign_31"
  input: "^save_1/Assign_32"
  input: "^save_1/Assign_33"
  input: "^save_1/Assign_34"
  input: "^save_1/Assign_35"
  input: "^save_1/Assign_36"
  input: "^save_1/Assign_37"
  input: "^save_1/Assign_38"
  input: "^save_1/Assign_39"
  input: "^save_1/Assign_4"
  input: "^save_1/Assign_40"
  input: "^save_1/Assign_41"
  input: "^save_1/Assign_42"
  input: "^save_1/Assign_43"
  input: "^save_1/Assign_44"
  input: "^save_1/Assign_45"
  input: "^save_1/Assign_46"
  input: "^save_1/Assign_47"
  input: "^save_1/Assign_48"
  input: "^save_1/Assign_49"
  input: "^save_1/Assign_5"
  input: "^save_1/Assign_50"
  input: "^save_1/Assign_51"
  input: "^save_1/Assign_52"
  input: "^save_1/Assign_53"
  input: "^save_1/Assign_54"
  input: "^save_1/Assign_55"
  input: "^save_1/Assign_56"
  input: "^save_1/Assign_57"
  input: "^save_1/Assign_58"
  input: "^save_1/Assign_59"
  input: "^save_1/Assign_6"
  input: "^save_1/Assign_60"
  input: "^save_1/Assign_61"
  input: "^save_1/Assign_62"
  input: "^save_1/Assign_63"
  input: "^save_1/Assign_64"
  input: "^save_1/Assign_65"
  input: "^save_1/Assign_66"
  input: "^save_1/Assign_67"
  input: "^save_1/Assign_68"
  input: "^save_1/Assign_69"
  input: "^save_1/Assign_7"
  input: "^save_1/Assign_70"
  input: "^save_1/Assign_71"
  input: "^save_1/Assign_72"
  input: "^save_1/Assign_73"
  input: "^save_1/Assign_74"
  input: "^save_1/Assign_75"
  input: "^save_1/Assign_76"
  input: "^save_1/Assign_77"
  input: "^save_1/Assign_78"
  input: "^save_1/Assign_79"
  input: "^save_1/Assign_8"
  input: "^save_1/Assign_80"
  input: "^save_1/Assign_81"
  input: "^save_1/Assign_82"
  input: "^save_1/Assign_83"
  input: "^save_1/Assign_84"
  input: "^save_1/Assign_85"
  input: "^save_1/Assign_86"
  input: "^save_1/Assign_87"
  input: "^save_1/Assign_88"
  input: "^save_1/Assign_89"
  input: "^save_1/Assign_9"
  input: "^save_1/Assign_90"
  input: "^save_1/Assign_91"
  input: "^save_1/Assign_92"
  input: "^save_1/Assign_93"
  input: "^save_1/Assign_94"
  input: "^save_1/Assign_95"
  input: "^save_1/Assign_96"
  input: "^save_1/Assign_97"
  input: "^save_1/Assign_98"
  input: "^save_1/Assign_99"
}
node {
  name: "save_1/restore_all"
  op: "NoOp"
  input: "^save_1/restore_shard"
}
library {
  function {
    signature {
      name: "_make_dataset_MrwY7mJkblE"
      output_arg {
        name: "batchdatasetv2"
        type: DT_VARIANT
      }
      is_stateful: true
    }
    node_def {
      name: "TensorSliceDataset/Log1p/x"
      op: "Const"
      device: "/device:CPU:0"
      attr {
        key: "dtype"
        value {
          type: DT_DOUBLE
        }
      }
      attr {
        key: "value"
        value {
          tensor {
            dtype: DT_DOUBLE
            tensor_shape {
              dim {
                size: 404
              }
              dim {
                size: 13
              }
            }
            tensor_content: "…"
          }
        }
      }
    }
    node_def {
      name: "TensorSliceDataset/Log1p"
      op: "Log1p"
      input: "TensorSliceDataset/Log1p/x:output:0"
      device: "/device:CPU:0"
      attr {
        key: "T"
        value {
          type: DT_DOUBLE
        }
      }
    }
    node_def {
      name: "TensorSliceDataset/Log1p_1/x"
      op: "Const"
      device: "/device:CPU:0"
      attr {
        key: "dtype"
        value {
          type: DT_DOUBLE
        }
      }
      attr {
        key: "value"
        value {
          tensor {
            dtype: DT_DOUBLE
            tensor_shape {
              dim {
                size: 404
              }
            }
            tensor_content: "…"
          }
        }
      }
    }
    node_def {
      name: "TensorSliceDataset/Log1p_1"
      op: "Log1p"
      input: "TensorSliceDataset/Log1p_1/x:output:0"
      device: "/device:CPU:0"
      attr {
        key: "T"
        value {
          type: DT_DOUBLE
        }
      }
    }
    node_def {
      name: "TensorSliceDataset"
      op: "TensorSliceDataset"
      input: "TensorSliceDataset/Log1p:y:0"
      input: "TensorSliceDataset/Log1p_1:y:0"
      device: "/device:CPU:0"
      attr {
        key: "Toutput_types"
        value {
          list {
            type: DT_DOUBLE
            type: DT_DOUBLE
          }
        }
      }
      attr {
        key: "output_shapes"
        value {
          list {
            shape {
              dim {
                size: 13
              }
            }
            shape {
            }
          }
        }
      }
    }
    node_def {
      name: "ShuffleDataset/buffer_size"
      op: "Const"
      device: "/device:CPU:0"
      attr {
        key: "dtype"
        value {
          type: DT_INT64
        }
      }
      attr {
        key: "value"
        value {
          tensor {
            dtype: DT_INT64
            tensor_shape {
            }
            int64_val: 320
          }
        }
      }
    }
    node_def {
      name: "ShuffleDataset/seed"
      op: "Const"
      device: "/device:CPU:0"
      attr {
        key: "dtype"
        value {
          type: DT_INT64
        }
      }
      attr {
        key: "value"
        value {
          tensor {
            dtype: DT_INT64
            tensor_shape {
            }
            int64_val: 42
          }
        }
      }
    }
    node_def {
      name: "ShuffleDataset/seed_1"
      op: "Const"
      device: "/device:CPU:0"
      attr {
        key: "dtype"
        value {
          type: DT_INT64
        }
      }
      attr {
        key: "value"
        value {
          tensor {
            dtype: DT_INT64
            tensor_shape {
            }
            int64_val: 42
          }
        }
      }
    }
    node_def {
      name: "ShuffleDataset/seed2/Equal/y"
      op: "Const"
      device: "/device:CPU:0"
      attr {
        key: "dtype"
        value {
          type: DT_INT64
        }
      }
      attr {
        key: "value"
        value {
          tensor {
            dtype: DT_INT64
            tensor_shape {
            }
            int64_val: 0
          }
        }
      }
    }
    node_def {
      name: "ShuffleDataset/seed2/Equal"
      op: "Equal"
      input: "ShuffleDataset/seed_1:output:0"
      input: "ShuffleDataset/seed2/Equal/y:output:0"
      device: "/device:CPU:0"
      attr {
        key: "T"
        value {
          type: DT_INT64
        }
      }
    }
    node_def {
      name: "ShuffleDataset/seed2/Const"
      op: "Const"
      device: "/device:CPU:0"
      attr {
        key: "dtype"
        value {
          type: DT_INT64
        }
      }
      attr {
        key: "value"
        value {
          tensor {
            dtype: DT_INT64
            tensor_shape {
            }
            int64_val: 42
          }
        }
      }
    }
    node_def {
      name: "ShuffleDataset/seed2/Equal_1/y"
      op: "Const"
      device: "/device:CPU:0"
      attr {
        key: "dtype"
        value {
          type: DT_INT64
        }
      }
      attr {
        key: "value"
        value {
          tensor {
            dtype: DT_INT64
            tensor_shape {
            }
            int64_val: 0
          }
        }
      }
    }
    node_def {
      name: "ShuffleDataset/seed2/Equal_1"
      op: "Equal"
      input: "ShuffleDataset/seed2/Const:output:0"
      input: "ShuffleDataset/seed2/Equal_1/y:output:0"
      device: "/device:CPU:0"
      attr {
        key: "T"
        value {
          type: DT_INT64
        }
      }
    }
    node_def {
      name: "ShuffleDataset/seed2/LogicalAnd"
      op: "LogicalAnd"
      input: "ShuffleDataset/seed2/Equal:z:0"
      input: "ShuffleDataset/seed2/Equal_1:z:0"
      device: "/device:CPU:0"
    }
    node_def {
      name: "ShuffleDataset/seed2/Const_1"
      op: "Const"
      device: "/device:CPU:0"
      attr {
        key: "dtype"
        value {
          type: DT_INT64
        }
      }
      attr {
        key: "value"
        value {
          tensor {
            dtype: DT_INT64
            tensor_shape {
            }
            int64_val: 2147483647
          }
        }
      }
    }
    node_def {
      name: "ShuffleDataset/seed2/Const_2"
      op: "Const"
      device: "/device:CPU:0"
      attr {
        key: "dtype"
        value {
          type: DT_INT64
        }
      }
      attr {
        key: "value"
        value {
          tensor {
            dtype: DT_INT64
            tensor_shape {
            }
            int64_val: 42
          }
        }
      }
    }
    node_def {
      name: "ShuffleDataset/seed2"
      op: "Select"
      input: "ShuffleDataset/seed2/LogicalAnd:z:0"
      input: "ShuffleDataset/seed2/Const_1:output:0"
      input: "ShuffleDataset/seed2/Const_2:output:0"
      device: "/device:CPU:0"
      attr {
        key: "T"
        value {
          type: DT_INT64
        }
      }
    }
    node_def {
      name: "ShuffleDataset"
      op: "ShuffleDataset"
      input: "TensorSliceDataset:handle:0"
      input: "ShuffleDataset/buffer_size:output:0"
      input: "ShuffleDataset/seed:output:0"
      input: "ShuffleDataset/seed2:output:0"
      device: "/device:CPU:0"
      attr {
        key: "output_shapes"
        value {
          list {
            shape {
              dim {
                size: 13
              }
            }
            shape {
            }
          }
        }
      }
      attr {
        key: "output_types"
        value {
          list {
            type: DT_DOUBLE
            type: DT_DOUBLE
          }
        }
      }
      attr {
        key: "reshuffle_each_iteration"
        value {
          b: true
        }
      }
    }
    node_def {
      name: "RepeatDataset/count"
      op: "Const"
      device: "/device:CPU:0"
      attr {
        key: "dtype"
        value {
          type: DT_INT64
        }
      }
      attr {
        key: "value"
        value {
          tensor {
            dtype: DT_INT64
            tensor_shape {
            }
            int64_val: -1
          }
        }
      }
    }
    node_def {
      name: "RepeatDataset"
      op: "RepeatDataset"
      input: "ShuffleDataset:handle:0"
      input: "RepeatDataset/count:output:0"
      device: "/device:CPU:0"
      attr {
        key: "output_shapes"
        value {
          list {
            shape {
              dim {
                size: 13
              }
            }
            shape {
            }
          }
        }
      }
      attr {
        key: "output_types"
        value {
          list {
            type: DT_DOUBLE
            type: DT_DOUBLE
          }
        }
      }
    }
    node_def {
      name: "BatchDatasetV2/batch_size"
      op: "Const"
      device: "/device:CPU:0"
      attr {
        key: "dtype"
        value {
          type: DT_INT64
        }
      }
      attr {
        key: "value"
        value {
          tensor {
            dtype: DT_INT64
            tensor_shape {
            }
            int64_val: 32
          }
        }
      }
    }
    node_def {
      name: "BatchDatasetV2/drop_remainder"
      op: "Const"
      device: "/device:CPU:0"
      attr {
        key: "dtype"
        value {
          type: DT_BOOL
        }
      }
      attr {
        key: "value"
        value {
          tensor {
            dtype: DT_BOOL
            tensor_shape {
            }
            bool_val: false
          }
        }
      }
    }
    node_def {
      name: "BatchDatasetV2"
      op: "BatchDatasetV2"
      input: "RepeatDataset:handle:0"
      input: "BatchDatasetV2/batch_size:output:0"
      input: "BatchDatasetV2/drop_remainder:output:0"
      device: "/device:CPU:0"
      attr {
        key: "output_shapes"
        value {
          list {
            shape {
              dim {
                size: -1
              }
              dim {
                size: 13
              }
            }
            shape {
              dim {
                size: -1
              }
            }
          }
        }
      }
      attr {
        key: "output_types"
        value {
          list {
            type: DT_DOUBLE
            type: DT_DOUBLE
          }
        }
      }
    }
    ret {
      key: "batchdatasetv2"
      value: "BatchDatasetV2:handle:0"
    }
  }
}
versions {
  producer: 26
  min_consumer: 12
}
